aldi/aldi.tflite (tflite, 735372 bytes, 20 tensors)

sequential/conv2d/BiasAdd/ReadVariableOp/resource f4 [16]
00000000: 44b6 873a afb7 893c 1439 5b3c 19ae 603b
00000010: 7506 5d3d 9b46 86bb c312 ab3c 3578 3b3b
00000020: 589e 233b 90e9 a53c d11d 713b 8f2f 793b
00000030: a91b 973c af0f b53c 1aac 9fba 8462 363b
0.0010354002 0.01681122 0.013380308 0.0034283458 0.053961236 -0.0040977723 0.02088297 0.0028605585
0.0024966206 0.020252973 0.0036791454 0.0038022732 0.018445807 0.022102205 -0.0012182028 0.0027829716

sequential/conv2d_1/BiasAdd/ReadVariableOp/resource f4 [32]
00000000: 508e 603d be68 173d 4723 fa3b e3d6 083d
00000010: 10de 33ba fc64 893c 5a19 5f3d e607 023c
00000020: c4a7 233d e900 17bc a615 87bd 6c88 133c
00000030: 3875 623c 278b 93bd 2494 653c 4443 143d
00000040: e51c 423d 2cc6 f1ba b0b9 013d 9e13 703b
00000050: 98c6 e43c 532c b7bc 6bdc ccbb 52af 8dbc
00000060: 9539 1c3d 0501 883d e2d0 4fbb 4e4c 323d
00000070: 3cbc d8bc 73fe 52bd d3d7 65bd 42b1 d03c
0.05482322 0.036965124 0.0076336 0.033408057 -0.0006861398 0.016771786 0.054467537 0.007936453
0.039954916 -0.009216526 -0.06595926 0.0090046935 0.013821892 -0.072042756 0.01401237 0.036196962
0.047390837 -0.0018445901 0.031671226 0.0036632787 0.027926728 -0.022360003 -0.006251862 -0.017295513
0.038140852 0.066408195 -0.0031710197 0.0435298 -0.026456945 -0.051512193 -0.05611403 0.025475148

sequential/conv2d_2/BiasAdd/ReadVariableOp/resource f4 [64]
00000000: 8aa7 4f3d 8f55 1d3d 1b7f 48bd c55c 6a3d
00000010: 3842 c1bc 0e55 85bd 24bc 99bd 5576 7cbc
00000020: 3267 623d 5cae 083d f0b4 d9bb 5fc6 47bd
00000030: 0b10 ec3c 6d33 30bd 2126 43bd 45a3 4f3d
00000040: bd4b 19bd 916c 473c 5494 49bd cb1d 68bd
00000050: 1f7c a1bd 1d5a 533d 7da0 7abc 777b 383c
00000060: 65ec 593d bd48 3f3d 6615 b93d b0c9 b5bc
00000070: 6b32 b63b 4e49 e43c 185d 8bbc 6e14 1d3d
00000080: 876f 5fbd 6bd2 dd3c 4105 f5bc 6877 50bd
00000090: e094 82bc 6935 ddbc bf0e abbd 0873 3dbd
000000a0: 58a2 0a3c 48fd 683b 0706 35bd 70b0 4f3c
000000b0: 5322 fcbc 90de c6bc e483 8ebd 97a3 d5bc
000000c0: 7409 81bd 3108 c2bc 3021 2dbd 81ed 9e3c
000000d0: 3c8c 01bc ed70 293b ce6b a83d 6215 59bd
000000e0: b643 2cbd e4f7 abbc 0178 3b3d 288d cfbd
000000f0: 4943 16ba f6a3 963d 0f24 77bd 7996 7abc
0.050696887 0.038411673 -0.048949342 0.05721738 -0.023591146 -0.065103635 -0.07506588 -0.015409072
0.055274196 0.033369407 -0.006643884 -0.048773166 0.028816244 -0.043017793 -0.047643784 0.050692815
-0.037425745 0.01217188 -0.049213722 -0.056669038 -0.07885002 0.05159961 -0.015297052 0.011259905
0.05320396 0.046700228 0.090372846 -0.022190899 0.0055602095 0.027866986 -0.017012164 0.03834956
-0.05454972 0.027077874 -0.029909732 -0.050895125 -0.01594013 -0.027003007 -0.08352422 -0.04625228
0.008461557 0.0035551358 -0.0441952 0.012676343 -0.030778086 -0.024276048 -0.0695875 -0.026078982
-0.06300631 -0.023685547 -0.04226798 0.01940036 -0.00790697 0.0025854663 0.08223687 -0.052998908
-0.04205676 -0.020992227 0.04576874 -0.10134345 -0.0005732072 0.07355492 -0.060337123 -0.015294665

sequential/conv2d_3/BiasAdd/ReadVariableOp/resource f4 [128]
00000000: f664 3bbd 62e2 843c c44d 9cbd ce44 38bd
00000010: 74bb 94bd a35f f5bc 3523 933d c8c1 553c
00000020: aa31 773d 6490 70bd 234c 1cbd ea39 b4bc
00000030: 942e 663c 471b 00bd 8d32 9c3b adbb 56bd
00000040: 3668 29bb 9154 16bd 2e83 7d3d d361 18bd
00000050: 60af ee3c 7638 dabc 098f 4c3d d941 48bd
00000060: 8838 16be d319 113d 5484 403c 2aa0 ce3c
00000070: 9fa8 f4bd c4d2 9cbd 55dd bdbc 3f78 613b
00000080: b125 96bd 3e22 433d 0e8b 76bc 874a 8abd
00000090: 24f1 453c 874d 40bd 4d16 84bb c9ea 533c
000000a0: 24c1 893d da08 3c3b 27ca 273d 4919 1b3d
000000b0: 1d2b 97bd 9126 a33d 5972 173b 7db2 2fbd
000000c0: 4ddb 62bc 7bb7 383c 9025 673c 5564 9ebd
000000d0: 3009 92bc cc82 39bd 7e7d 03bc 8cfd cebd
000000e0: a96e 4abd 078a e5bd e66e febc abf0 353d
000000f0: f6c0 53bd 8dc1 f2bc b2dc 4abd 699c 5a3c
00000100: b9c0 90bd 9b8c 2d3c 25dd 46bc 3739 71bc
00000110: b4be 70bd 6c02 b8bd 5ea4 69bd 1de7 acbd
00000120: 2f9f b63c 2566 9c3d 7f04 acbd a254 ca3d
00000130: b6bf 5aba c9a9 5f3e bc9d 27bd 0fcf bcbc
00000140: 3d71 47bc fec8 cebd 7c2f 9fbd 12cc 94bc
00000150: 8c18 b9bd b7cb 523c f819 83ba a2eb 89bc
00000160: d948 463d 09f6 873d 7461 fb3c ce6f 43bd
00000170: f530 f33c fddf 99bd b587 653c 6d44 273d
00000180: 9865 333e 5083 88bc d9e2 7039 e4d8 e83b
00000190: 708e bebd 65cd 53bc 058d 423d 3428 78bc
000001a0: 3f07 f2bc d9f6 60bc 73dc 143d cb3b e4bd
000001b0: b21f 4bbd 40e6 3b3d 820a d53b 8530 c83a
000001c0: e07a 4cbd c693 40bd 6003 8f3b 94aa 23bd
000001d0: 5bb3 823d 9477 e2bc 4a5a 97bc 6a1b 663d
000001e0: b493 08bd bee2 2bbd 039c ba3c dbe5 92bc
000001f0: 6b32 ecbb 678c 023c 46c5 44bd c642 43bd
-0.04575058 0.016221229 -0.0763202 -0.044987492 -0.07262316 -0.02995283 0.071844496 0.013046689
0.060350098 -0.05873145 -0.038158547 -0.022000272 0.014049191 -0.031276014 0.0047667683 -0.052425075
-0.0025849468 -0.036701743 0.06189268 -0.037202667 0.02913636 -0.02663825 0.049941096 -0.048890922
-0.14670002 0.03542502 0.0117502995 0.025222857 -0.119462244 -0.07657388 -0.023176828 0.0034403948
-0.07331408 0.047640078 -0.015047802 -0.06752496 0.012081418 -0.046948936 -0.004030979 0.012934395
0.06726292 0.00286918 0.040964272 0.03786591 -0.0738127 0.0796634 0.0023108928 -0.04289483
-0.013846231 0.011274214 0.014108077 -0.077339806 -0.017826647 -0.045290753 -0.008025525 -0.10106954
-0.04942194 -0.11207967 -0.03105874 0.044418972 -0.051697694 -0.029633308 -0.049526878 0.013342955
-0.07068009 0.010592605 -0.012137686 -0.014723114 -0.05877562 -0.08984837 -0.05704152 -0.08442519
0.022292702 0.0763667 -0.08399295 0.09879424 -0.0008344607 0.21842112 -0.04092191 -0.023047952
-0.012172994 -0.1009693 -0.07772729 -0.018163715 -0.09037885 0.012865952 -0.0010002246 -0.016835991
0.048409317 0.06638724 0.030686118 -0.047714047 0.02968643 -0.075134255 0.014009406 0.04083674
0.17519224 -0.016664177 0.00022972691 0.0071059335 -0.093045115 -0.012927388 0.047497768 -0.015146304
-0.02954447 -0.013730728 0.03634305 -0.11144217 -0.049590774 0.04587388 0.006501497 0.0015273249
-0.04992187 -0.047015928 0.004364416 -0.039957598 0.063818656 -0.02764491 -0.01847567 0.056178488
-0.033343986 -0.041964285 0.02277947 -0.01793187 -0.0072081587 0.007968045 -0.048039697 -0.047671102

sequential/dense/BiasAdd/ReadVariableOp/resource f4 [512]
00000000: 1199 8a3c 4878 b6bd 5c34 313d 23c2 65bd
00000010: a595 123d 6aaa 9d3c 270d 383d 5970 32bb
00000020: 91e4 683d c448 8f3b abcb 193e 3521 caba
00000030: 900f 23bb 599f 883d f1a8 0d3d 85ee 5a3d
00000040: 63ce 2c3d 636a a53d 75e2 8dbc b6fd c93c
00000050: 6948 523d 284b df3c 2f1a 32bd c739 a5bc
00000060: b83f 0c3d a516 e33c 4a9d 6bbb 33a8 113d
00000070: 754b 8a3d fd07 8fbc eee2 4e3d e153 00bc
00000080: 5bfe 4f3d 2257 683d 35a0 95bd a104 6a3d
00000090: 49bd 0c3d 9346 8a3c f5bd c03b e76b 59bd
000000a0: 22ec 1f3d 8099 d7bc 0c46 d03c e091 023e
000000b0: a3d9 1b3d 0470 303c 19ff 513d b5b3 6abd
000000c0: f439 463d cbb9 2d3c f4e2 a5ba edc6 dcba
000000d0: 894c 4fbd b18e 143d 1c3c fa3d d5b3 d4bc
000000e0: 22b3 453d 96a7 0abd 9d82 4c3d 6b62 083e
000000f0: 0632 4b3d fc2d 67bd 0c89 1a3d b987 553d
00000100: b3a7 2bbd dae5 8cbd e1b6 053d 8a8a 37bd
00000110: d2a9 1c3b a040 9d3d 73d7 e8bc 723f 233d
00000120: a7f9 dd3d 7089 9fbc e047 57bd 56d6 f63c
00000130: 0f4f 793d 9e44 3bbd ffe1 483d 83fc 943d
00000140: e8f1 7bbd 95ec 5e3d ab07 b13c 3ff8 e53b
00000150: 58da 553d 74fb d13c dfe4 0cbd 037d a1bc
00000160: 0fc3 073c ffe4 b93d 1359 c93c fa66 093d
00000170: ec1b 26bd 9efc 953d d07f adbc 1271 1f3d
00000180: 0c29 3cba 44e5 863d 6cb5 81bb 8b95 7c3c
00000190: 767e 393d 7ebb 3c3c 97f4 7c3c d076 16bd
000001a0: 70aa 883d 5a6e 3fbb 91fe 51bd baae d93c
000001b0: bb33 82bd 0e21 063d 3a26 873d bc43 af3c
000001c0: 02c6 a73d a2c5 bebd 3dca 33bd a980 743d
000001d0: 07e5 9c3d e508 82bd 2271 5cbd c58f c83d
000001e0: 7f32 ae3d 868e 2c3d a62c 4a3d 7261 553d
000001f0: e513 903d e9e9 8dbd 0630 193d f756 143d
00000200: 41d4 2dbd 063c a63d 711a aebd 9496 0a3d
00000210: 298a 92bd 6c6f 5a3c e9f6 e9bb 553b e9bb
00000220: c46f 2ebb 4935 c83d c319 083d 8381 95ba
00000230: ce48 f43d d0fc 8abc fb1f 923d 338d 4c3d
00000240: 7d3a 8f3d 5bab 7d3d 6d5e 9f3c f18f 053d
00000250: 6d15 7b3c dbe8 2c3d 1995 b03c 5c2e 8dbd
00000260: 0a26 bdbc d73f f4bc 5f9c 133d f51c 103d
00000270: 6205 83bd a702 403d a106 413d a0ed 953c
00000280: 321a 803d eba9 253d 8209 7d3d 66c8 f23d
00000290: 7de6 6fbc 9ca9 683d 5c31 eebc 02dd 6b3d
000002a0: 1053 ea3b c307 6abd 0ae2 f83c 5538 e23d
000002b0: 9337 d63d 8cf3 423d 90c4 19bd 89ec 2a3c
000002c0: 768f 043d ebc7 f2bc 872b 5e3d a5ef d43d
000002d0: d94d 243d fba2 053c dad3 33bd 9b4d 87bd
000002e0: fb07 883d 9bd3 9f3c 68e0 0ebc 4d23 0e3d
000002f0: bdf5 553d d0cb 023c 2827 fc3c 8bca e5bc
00000300: 6d8f 043c 1e31 9cbc 9950 f83d 3a06 443c
00000310: 21f3 acbb 5248 a4bc 896f de3c 1f6c 98bc
00000320: 85cd 263c 46fd cf3c 0135 5f3d cf24 533c
00000330: cc97 4c3d c376 29bc 5acf 873d a3ed bdba
00000340: 0127 843c 8a70 fd3d 50cd 07bd f03e 22bc
00000350: 6013 66bc 1e04 ae3d f49d 613d 8e88 713d
00000360: 8b91 1fbd 0a95 a03d 23c0 263d 28b8 ef3c
00000370: a1d8 473d 84dc 0a3d 6cc6 953d 4d72 5c3d
00000380: 047f 18bd 36d1 c33d a264 28bd 8b5d 843d
00000390: b38a 29bc d842 333b fd39 d73c fdcd 8a3d
000003a0: b0d2 813a 606c 303d f2a0 eabc c999 683c
000003b0: defe 30bd b880 e3bd ef0f a23d a940 973d
000003c0: e09e 57bd fcc5 783d 053f 0b3d 42c0 443d
000003d0: bbbb 0bbd 3c8b 02bc 2d52 8c3c a521 9abd
000003e0: 5517 d6bc 912b e53c f3bf 893d 6bdb d53b
000003f0: b5f0 1e3d 6d80 8abd 831f d6bc db92 ae3d
0.01691869 -0.089096606 0.043262824 -0.056093346 0.035787243 0.019246299 0.044934418 -0.002722761
0.056858603 0.004372688 0.150191 -0.0015421273 -0.0024881102 0.06671018 0.034584943 0.053450126
0.042189013 0.08076932 -0.017319897 0.024657112 0.051338587 0.027257517 -0.043482002 -0.020169152
0.034240454 0.027720759 -0.0035951906 0.035560798 0.067526735 -0.017459864 0.050509386 -0.007832498
0.05077968 0.05672372 -0.07305948 0.05713332 0.034360204 0.016879356 0.0058820196 -0.05308142
0.039043553 -0.026318312 0.025424026 0.1275096 0.03804935 0.010768894 0.05126867 -0.05730029
0.048395112 0.0106033785 -0.0012656138 -0.0016843952 -0.0506101 0.036268894 0.12218496 -0.025964657
0.048266537 -0.03385123 0.04992925 0.13318793 0.049608253 -0.05644034 0.037728354 0.05213139
-0.041907977 -0.06879778 0.03264511 -0.044809856 0.0023904932 0.07678342 -0.028423047 0.039855428
0.10838633 -0.019474715 -0.05255878 0.0301315 0.06086641 -0.045719735 0.04904365 0.07274725
-0.061509997 0.05442484 0.021610102 0.0070181186 0.052210182 0.025632598 -0.034397956 -0.01971293
0.008286252 0.09076881 0.024578607 0.03354547 -0.040553972 0.073235735 -0.02117911 0.03892619
-0.00071777473 0.06586698 -0.0039583948 0.015416513 0.04528662 0.011519311 0.015439174 -0.036734402
0.066731334 -0.0029210062 -0.051268164 0.026572574 -0.06357523 0.032746367 0.06599088 0.021394603
0.08192064 -0.09315039 -0.04389404 0.059693012 0.07660871 -0.06349353 -0.05381883 0.09793047
0.08505725 0.04212811 0.049358986 0.052094884 0.070350446 -0.069293804 0.037399314 0.03621575
-0.04243875 0.08116917 -0.08501137 0.03383501 -0.07155258 0.013332229 -0.0071400297 -0.0071176686
-0.002661691 0.09775788 0.033227693 -0.0011406395 0.11927949 -0.016966254 0.07135006 0.049939346
0.06993578 0.061930995 0.019454205 0.032607976 0.0153249325 0.042214256 0.02155547 -0.06893608
-0.023089428 -0.029815597 0.0360378 0.035183866 -0.06397511 0.04687753 0.047125462 0.018301785
0.06254996 0.04044525 0.061776645 0.11854629 -0.014642355 0.056802377 -0.02907627 0.057583816
0.007151015 -0.05713631 0.030381221 0.11045901 0.10459819 0.047595546 -0.037540972 0.010432371
0.032363378 -0.029636344 0.05424073 0.10397271 0.040113304 0.008156533 -0.04390321 -0.06606599
0.06642147 0.019510081 -0.008720495 0.034701634 0.052236307 0.007983163 0.03078039 -0.028050682
0.008090836 -0.01906639 0.12124748 0.011964375 -0.0052780067 -0.020054016 0.027152793 -0.018606244
0.010180836 0.025389325 0.054493908 0.012887194 0.049949452 -0.010343256 0.06631346 -0.0014490377
0.01613188 0.12374981 -0.033154786 -0.009902701 -0.014042705 0.08496879 0.055082276 0.05896812
-0.03895716 0.07840927 0.04071058 0.029262617 0.048790578 0.033901706 0.073132366 0.053819943
-0.037230507 0.09561388 -0.041111596 0.064631544 -0.01034801 0.0027353074 0.026272768 0.067775704
0.0009904709 0.043072104 -0.028641198 0.0141968215 -0.04321181 -0.111085355 0.07913195 0.0738538
-0.05264175 0.060735688 0.033995647 0.048034914 -0.03411458 -0.007967766 0.017129028 -0.075259484
-0.026134172 0.027974876 0.067260645 0.006526401 0.038803775 -0.067627765 -0.026138073 0.08524104

sequential/dense_1/BiasAdd/ReadVariableOp/resource f4 [36]
00000000: faa9 023e 3d2d afbd 73f8 9ebd b470 b6bd
00000010: ceb5 85bd 16e3 8d3c b54d b3bd 9f84 cabd
00000020: 7280 a0bd bc93 b4bd da78 03be 5201 bfbd
00000030: db0f a1bd 01d6 9ebd cbab cfbd 52fc 98bd
00000040: 20d0 18bd c191 85bd 7512 5ebd c4eb 47bd
00000050: 020a e3bd 76b6 a1bd 6ca8 c7bd 7f65 aebd
00000060: 00db 65be 9647 b2bd 65af 9abd dc4c d6bd
00000070: de2a 27be 9040 0fbe 1ca4 f1bd 9eb0 c4bd
00000080: 9cca 3ebd 1b46 82bd b93f 8cbd 6a8e ccbd
0.12760153 -0.085535504 -0.07762232 -0.08908215 -0.06528817 0.017320197 -0.08755056 -0.09888577
-0.07836999 -0.088172406 -0.1283907 -0.09326424 -0.07864352 -0.07755662 -0.10140189 -0.07470001
-0.03730786 -0.06521941 -0.05421682 -0.048808828 -0.11085893 -0.0789613 -0.09748921 -0.085154526
-0.22446823 -0.0870506 -0.07552985 -0.104638785 -0.16324946 -0.13989472 -0.117988795 -0.096039996
-0.046579942 -0.06361028 -0.06848092 -0.09988101

sequential/batch_normalization/FusedBatchNormV3 f4 [16]
00000000: 0959 c9be 5601 0cbf 3cc7 debe 3574 edbe
00000010: 9b9b 67bf 7f17 03bf 5ae5 12bf 624a cbbe
00000020: e7df 08bf 373a 1cbf 277d 5abe 6ebf e5be
00000030: 3b4e 1dbf 6814 6bbf 7393 d8be aeed 0fbf
-0.3932574 -0.5468954 -0.4351138 -0.4637772 -0.9047181 -0.5120773 -0.5738121 -0.39705187
-0.5346665 -0.6102633 -0.21336804 -0.44872612 -0.61447495 -0.9182801 -0.42299995 -0.56222045

sequential/batch_normalization/FusedBatchNormV31 f4 [16]
00000000: dc4d 8441 4ddb 7a41 a4ea f041 ab8f 4a41
00000010: 83fd a440 a4d0 1641 739a 5e41 d399 1e41
00000020: f4a2 3241 5103 8141 cf8a e141 aade 4341
00000030: 0c88 aa40 f0ed 8241 1190 2841 1b00 b740
16.538017 15.67854 30.11457 12.660075 5.1559463 9.425938 13.912707 9.912555
11.1647835 16.12662 28.192778 12.241861 5.3291073 16.36618 10.535172 5.718763

sequential/batch_normalization_1/FusedBatchNormV3 f4 [32]
00000000: 78f9 2fbf 93ba 4fbf 0e66 c6bf 73ea 4ebf
00000010: 38a1 88bf 9e91 63bf c46b 4ebf dd7f 65bf
00000020: a956 26bf 7c3d 9ebf 3eed 54bf 003e 28bf
00000030: b281 70bf 2815 90bf c7fa 51bf 9cdf 3ebf
00000040: e661 67bf a90f 91bf 72df 2ebf e44a 3fbf
00000050: d44f 61bf d2ce 6bbf 98f6 1bbf 604e 47bf
00000060: b354 acbf 55e7 4dbf 070f 8fbf 7aec 3fbf
00000070: ab27 b5bf 4246 4bbf 2c75 8abf 6aa6 80bf
-0.68740034 -0.81144065 -1.5499895 -0.8082649 -1.06742 -0.8889407 -0.8063319 -0.8964823
-0.6497598 -1.2362514 -0.831745 -0.65719604 -0.939479 -1.1256456 -0.8202328 -0.7455995
-0.90383756 -1.1332904 -0.683097 -0.7472365 -0.88012433 -0.9211246 -0.6092315 -0.77853966
-1.3463348 -0.8043111 -1.1176461 -0.7497021 -1.4152731 -0.7940408 -1.0817008 -1.0050786

sequential/batch_normalization_1/FusedBatchNormV31 f4 [32]
00000000: 7405 733f ce7f 983f 418b 2340 069d a33f
00000010: d44c c03f c13a 9e3f 3090 953f 738f b93f
00000020: 92b0 ab3f 29aa 1140 aec1 b63f e150 a63f
00000030: 471f dd3f 50cb f23f 9970 b13f 804a 9f3f
00000040: 183e ae3f 2d6e f93f 6336 d03f 51a3 cd3f
00000050: a9fe 0440 ae33 b43f 9a1d 983f c2e4 d33f
00000060: 768f 0740 596a cf3f 4a4f 1b40 8ae3 b43f
00000070: fcfd 1840 79a2 d13f 492f c73f 94b7 a93f
0.94930196 1.1914003 2.5553744 1.2782295 1.5023446 1.236168 1.1684628 1.4496902
1.341326 2.2760108 1.4277856 1.2993432 1.727517 1.8968296 1.3862487 1.244461
1.36127 1.9486748 1.6266598 1.6065465 2.0780432 1.4078271 1.1884034 1.6554186
2.1181312 1.620433 2.4267144 1.413194 2.390502 1.6377708 1.5561305 1.3259149

sequential/batch_normalization_2/FusedBatchNormV3 f4 [64]
00000000: 28c1 b4bf f49c 96bf 6399 94bf 401e a4bf
00000010: 3f37 b4bf 6795 a2bf 635e 80bf 697d a4bf
00000020: 6e9c b5bf d659 8dbf 7d8a b4bf a72b 9abf
00000030: 4fc5 a5bf 3478 9bbf 019c 6ebf 9967 89bf
00000040: 4899 a3bf c968 83bf dc27 9cbf 31b2 9ebf
00000050: 60fd 92bf 89a3 a1bf 602a aabf 1063 a9bf
00000060: f52b a3bf 428b abbf 5e8a c9bf d33c 88bf
00000070: 240a b1bf 487e 96bf 3562 93bf 0de3 adbf
00000080: 8974 65bf a82f c3bf 6054 9cbf f956 87bf
00000090: 5b1f 99bf 30f5 71bf a240 8ebf c332 7dbf
000000a0: 1286 9cbf 2df9 85bf 7cf9 abbf ac3f 8cbf
000000b0: 21c5 9ebf ee92 85bf a2c5 81bf 77f3 acbf
000000c0: dfff 98bf e6ea a4bf 92e9 aabf 4816 7cbf
000000d0: e1e3 83bf 692e 95bf c9fc bbbf 5dd0 82bf
000000e0: 2e64 77bf 7a99 94bf dab1 91bf c2d0 90bf
000000f0: 361c aabf 537a 9abf e977 6abf 7035 a3bf
-1.4121447 -1.1766648 -1.160931 -1.2821732 -1.407936 -1.2701844 -1.0028805 -1.2850772
-1.4188364 -1.1043041 -1.4104763 -1.2044572 -1.2950839 -1.2146058 -0.93206793 -1.073474
-1.2781153 -1.0266353 -1.2199664 -1.239813 -1.1483574 -1.2628032 -1.3294182 -1.3233356
-1.274779 -1.3401873 -1.5745351 -1.0643562 -1.383122 -1.1757288 -1.1514345 -1.3584915
-0.89630944 -1.5248919 -1.2213249 -1.0573417 -1.1962694 -0.9451475 -1.1113474 -0.9890558
-1.2228415 -1.0466667 -1.3435512 -1.0956931 -1.2403909 -1.0435464 -1.0138438 -1.35118
-1.1953086 -1.2884185 -1.335253 -0.984715 -1.0303918 -1.1654788 -1.4686519 -1.0219837
-0.9663724 -1.1609337 -1.1382401 -1.1313708 -1.3289859 -1.206858 -0.9158922 -1.2750683

sequential/batch_normalization_2/FusedBatchNormV31 f4 [64]
00000000: 69f9 5f3f 26f9 a13f 079d 913f ca06 a33f
00000010: 66ce ab3f 6d86 d53f 87e2 a33f 006c b43f
00000020: 2236 9e3f ea63 a43f d914 9d3f a97c d33f
00000030: 66a9 a43f 7224 993f b489 9a3f e278 7a3f
00000040: 41ce 833f 2610 9a3f 30b9 a23f 4ef7 a53f
00000050: a652 923f a970 ce3f b0b9 903f d97f ac3f
00000060: 15df 943f 085a 9c3f 9d01 b73f 4f25 a33f
00000070: a848 8f3f f95a a73f 726b c73f dd8b 973f
00000080: 9c7f 9c3f 8a5d ab3f 891f b23f e5e4 ac3f
00000090: f1c2 8f3f 12e7 b83f 4b45 d83f 34ed be3f
000000a0: 80db a03f 7ecf 9a3f 3516 853f fea8 8b3f
000000b0: cc01 a73f 0743 b73f a758 a53f cadf 9d3f
000000c0: cc03 b13f a857 af3f 3447 7e3f 600a 963f
000000d0: 700d 853f ee0f af3f 9f10 b33f 9025 a13f
000000e0: 7b32 b93f e1ae 643f 3161 983f 742c b33f
000000f0: 4bd8 8a3f e2a1 8f3f df1a ad3f 347e 9b3f
0.87489945 1.2654159 1.1376046 1.2736447 1.3422363 1.6681648 1.2803506 1.4095459
1.236027 1.2842991 1.2271987 1.6522418 1.2864196 1.1964247 1.2073274 0.978407
1.0297319 1.2036178 1.2712765 1.2966096 1.1431472 1.6128131 1.1306667 1.3476516
1.1630579 1.2214975 1.4297367 1.2745761 1.1194048 1.3074638 1.5579665 1.1839558
1.2226443 1.3387921 1.3915874 1.3507353 1.1231366 1.4445517 1.6896147 1.4916139
1.2566986 1.2094572 1.0397402 1.0910947 1.3047423 1.431733 1.291768 1.233392
1.3829284 1.3698626 0.993274 1.1721916 1.0394726 1.3676736 1.3989447 1.2589588
1.446853 0.89329344 1.190466 1.3997941 1.0847257 1.1221278 1.3523825 1.2147889

sequential/batch_normalization_3/FusedBatchNormV3 f4 [128]
00000000: 1010 e1bf aefc e6bf 1eca 95bf c021 ddbf
00000010: a634 9abf 4763 ccbf 860a d3bf 82ff b3bf
00000020: 3ac4 dfbf 79a0 93bf d208 04c0 95e1 26c0
00000030: 7a8b 41bf a0eb c7bf 3cb1 05c0 3ff2 e5bf
00000040: b349 14c0 7fc1 49c0 acae b6bf 62b9 dabf
00000050: e279 f1bf 3a28 18c0 b29c 85bf 9927 17c0
00000060: b504 fdbf dd7b 61bf bcb6 8abf 3d4e 73bf
00000070: 1905 16c0 46be f2bf 750b 26c0 5894 9fbf
00000080: 41e4 2dc0 d783 7bbf b08b d2bf 8a28 86bf
00000090: 198e b5bf 2c89 f8bf a501 81bf 8948 43c0
000000a0: 291a 89bf 5e73 73bf 6974 e7bf 0afb 22c0
000000b0: ee5e 46c0 4eb5 12c0 31f5 a2bf 3bf0 15c0
000000c0: 9703 18c0 a072 a9bf e654 c2bf 610d 2ec0
000000d0: 87e1 c8bf b0ba 11c0 a2ae 19c0 8fc5 06c0
000000e0: 5cb6 e2bf 7045 81bf 054e fdbf 3d40 1fc0
000000f0: 2485 43c0 83f7 37c0 1b21 9abf aaeb fcbf
00000100: 7223 94bf 0756 22c0 441f 18c0 c61b 04c0
00000110: 4482 79bf 31af 32c0 ad6f bbbf ff48 1bc0
00000120: 0b17 18c0 d085 f9bf b08f 82bf baa1 01c0
00000130: 0105 9cbf 1b86 b2bf 7065 56c0 0719 2dc0
00000140: 43ce 88c0 b457 cebf e88c 71c0 be31 72bf
00000150: 931d a0bf a14b 01c0 fe7e 18c0 30ee 22c0
00000160: 54f5 e9bf 3d6c 26c0 f440 1bc0 ad86 bfbf
00000170: 9258 e3bf ca26 3ac0 7030 4bc0 5633 d7bf
00000180: 15aa f5bf ddbb 77c0 729c f0bf ba52 e8bf
00000190: 4203 c0bf dedd c1bf d389 20c0 64dc d8bf
000001a0: 3121 a5bf 5dd6 4ec0 9690 41c0 b47c debf
000001b0: dd49 aabf 9ea5 0fc0 24b7 12c0 8eba ccbf
000001c0: 8416 eabf a678 09c0 b5ef 89bf ee94 d2bf
000001d0: dd85 02c0 a85a 27c0 9c2d f6bf 6c41 fdbf
000001e0: 4f46 10c0 0433 c0bf f26f c3bf 733f a1bf
000001f0: 3aea 29c0 957f 5dc0 30e4 26bf b6dc e4bf
-1.7583027 -1.8045862 -1.1702306 -1.7275925 -1.2047317 -1.5967797 -1.6487586 -1.406235
-1.7481759 -1.1533347 -2.0630383 -2.6075184 -0.7560345 -1.5618782 -2.0889425 -1.7964553
-2.3169982 -3.152435 -1.4272056 -1.7087824 -1.8865321 -2.3774552 -1.0438445 -2.3617918
-1.9767061 -0.88079625 -1.0837016 -0.9504126 -2.3440611 -1.8964317 -2.5944493 -1.2467146
-2.7170565 -0.98248047 -1.6448879 -1.0481122 -1.418399 -1.9416862 -1.0078627 -3.0513022
-1.0711108 -0.9509791 -1.80824 -2.5465722 -3.099544 -2.292316 -1.2731076 -2.3427875
-2.375219 -1.3238106 -1.5182159 -2.7195666 -1.5693825 -2.2770195 -2.4012837 -2.105808
-1.7711902 -1.0099316 -1.9789435 -2.4882958 -3.0550013 -2.874482 -1.2041353 -1.9759419
-1.1573317 -2.5365007 -2.3769083 -2.0641952 -0.97464395 -2.7919428 -1.4643456 -2.4263303
-2.3764064 -1.9493961 -1.02001 -2.025496 -1.2189027 -1.3947176 -3.3499413 -2.7046525
-4.2751784 -1.6120515 -3.7742252 -0.9460715 -1.2509025 -2.020241 -2.382751 -2.5457878
-1.8277993 -2.6003563 -2.4258394 -1.4962975 -1.7761405 -2.9086175 -3.1748314 -1.6812541
-1.919253 -3.8708413 -1.8797743 -1.8150246 -1.5000994 -1.5145833 -2.5084121 -1.6942258
-1.2900754 -3.2318337 -3.0244498 -1.7381806 -1.3303791 -2.2444835 -2.292428 -1.5994432
-1.8288121 -2.1479888 -1.0776278 -1.64517 -2.0394204 -2.6149082 -1.9232669 -1.978559
-2.2542913 -1.5015569 -1.5268538 -1.2597488 -2.654921 -3.460912 -0.65191936 -1.7879856

sequential/batch_normalization_3/FusedBatchNormV31 f4 [128]
00000000: c1c2 0540 d35c ec3f 8587 d53f 3e88 fe3f
00000010: 9dd9 ea3f 14e8 ef3f 873d e13f babd bf3f
00000020: 6595 d73f e5cc 0b40 c781 f73f 57c5 f63f
00000030: c933 0f40 1624 c83f b5c5 1640 bea4 d73f
00000040: ebd9 d03f 0f37 bf3f 341e 0440 83d9 ea3f
00000050: 44b9 ee3f 3276 e13f 084a 0c40 3802 ca3f
00000060: 921c 0040 8449 0840 6df6 1640 2ef9 e43f
00000070: 90f7 f33f 1cff fc3f eb1c eb3f 84ec ff3f
00000080: 0570 0140 29fe 0e40 9c23 d43f c52b 0440
00000090: d6d3 ce3f 7313 e73f a920 2e40 e65d f63f
000000a0: 27c9 0940 ec8f e33f 1d74 dc3f ce89 943f
000000b0: 3bcb ec3f f00e e93f 76a7 1440 4015 df3f
000000c0: 0202 b13f 5a21 d23f da28 1940 4b03 1040
000000d0: 2325 0140 008b ab3f 5158 dd3f 2a8d 0840
000000e0: 6b0f c33f 2af6 0640 8375 fb3f e141 d23f
000000f0: 2cc0 dd3f 86a3 fa3f bd74 913f b8a3 cb3f
00000100: e057 ee3f fddb e23f b51d ef3f 2d60 e73f
00000110: 4269 3540 129a cd3f 18a5 ea3f 4181 eb3f
00000120: d6c0 ec3f 0ef2 c63f fcf2 0540 dd53 dd3f
00000130: 8fb9 e03f 0d22 e53f 1953 ee3f 0129 df3f
00000140: 025a 0840 a7fb ee3f b227 0540 f0a4 0b40
00000150: b2bb dc3f d847 d23f 38a2 d13f d198 d73f
00000160: e0d9 b33f 4969 d53f 8f8a e53f a506 e53f
00000170: db48 eb3f be2b e43f 8bfa c33f cc3d fd3f
00000180: 04af f63f 48c5 e43f aa7c c03f 7172 fb3f
00000190: 7d1d f83f 64d6 0140 6b14 c13f 8c25 db3f
000001a0: f100 bf3f d6dc 0840 9f19 0940 6607 f73f
000001b0: a147 dd3f c6ba 0940 7dce 0040 8347 1540
000001c0: e892 0440 dc78 f63f 5c05 d13f bc13 1a40
000001d0: 7031 0a40 3552 f63f 2891 1d40 ca3c d23f
000001e0: 73bd e73f d0c4 e23f ef29 bb3f 0956 de3f
000001f0: 4f39 0140 d4b0 f53f 605e 3f40 dcbc c83f
2.0900118 1.8465828 1.6681982 1.9885328 1.834766 1.87427 1.7596902 1.4979775
1.6842467 2.1843808 1.933648 1.9278973 2.2375357 1.5636013 2.355817 1.684715
1.6316503 1.4938678 2.0643435 1.8347629 1.8650289 1.7614195 2.1920185 1.5781927
2.0017438 2.129487 2.3587906 1.7888544 1.9059925 1.9765353 1.83682 1.9994054
2.0224621 2.2342627 1.6573367 2.0651715 1.6158397 1.805281 2.7207434 1.9247406
2.1529024 1.7778296 1.7222935 1.1604555 1.8499521 1.8207684 2.322721 1.742836
1.3828738 1.6416428 2.3931184 2.250201 2.0178916 1.3401794 1.7292577 2.133616
1.523908 2.1087747 1.9645237 1.6426355 1.7324271 1.9581153 1.1363751 1.5909338
1.8620567 1.7723385 1.8680941 1.8076226 2.8345494 1.6062644 1.8331633 1.839882
1.8496349 1.5542619 2.0929556 1.7291218 1.7556628 1.7901016 1.8619109 1.7434388
2.1304936 1.8670548 2.0805478 2.181942 1.724478 1.6428175 1.637763 1.6843511
1.4050865 1.6672755 1.793291 1.7892653 1.8381609 1.7825849 1.5310835 1.9784484
1.927216 1.7872705 1.5038044 1.96443 1.9383999 2.0287104 1.5084356 1.7120833
1.4922162 2.1384788 2.1421888 1.9299133 1.7287484 2.1520247 2.012603 2.3324897
2.0714664 1.9255633 1.632976 2.4074545 2.1592674 1.9243838 2.4619846 1.6424801
1.810469 1.7716312 1.4622172 1.7370006 2.0191228 1.9194589 2.9901352 1.5682635

sequential/dense/MatMul f4 [512, 128]
00000000: 7350 563c 7b2a 64bc 6152 01bd f655 e5bc
00000010: 8347 f43d 5777 c6bd fba6 43bd e3cf 12be
00000020: 710c 103d 6b6f a0bd f9e2 9d3d 4601 26bd
00000030: eafe 94bd 4606 d8bd af86 dbbd 8eb6 a7ba
00000040: 1de0 87bd b57d 03be a905 01be c5ed 08be
00000050: 9ef9 0dbd 4261 6f3d 18c1 35be fd5f 8cbc
00000060: 1162 10bd d7cb cabd 00f7 54bd 50d0 6a3c
00000070: 15d0 0fbe 284e c43b 9e9d f8bc 3be2 97bd
00000080: da92 f4bb feb0 32bc 3471 c53d 2974 f1bd
00000090: 7845 e7bb 73ce 6d3d fd90 2ebe 4983 673d
000000a0: 5112 93bd cefc 873b 1022 0ebc 404e e7bd
000000b0: 7b91 31bc 26ed b43c f9eb d7bb 2517 253e
000000c0: 0bfa b23b 2117 af3d c969 013e cb17 2fbd
000000d0: 1f20 a0bc 926b 833d 46d9 c33d 641d 41bd
000000e0: 0458 f4bd ad40 de3d 0ff8 ecbd 0fb3 b13d
000000f0: 0fbb 5f3c a319 ac3c 9e36 67bd a771 9cbd
00000100: f32f 913d 8d5c 543d e32e 4bbd eb7e 8a3c
00000110: 8978 75bd 389e 9abb fcdc 47bd 6ce3 423d
00000120: 4745 ae3c e650 e5bd 06e5 3b3d f0db 793d
00000130: a669 aebd 2abb 9c3d 8880 c1bd fa01 ca3d
00000140: 3484 efbb 22c6 bd3d e3bd 9e3d 5fbb e63d
00000150: 42d1 6d3d f3e4 c9bd a74b df3b 5c63 c83a
00000160: 297d 3c3d 85a1 1bbe 4053 54bd 002b f23d
00000170: 2921 4f3e 66fc 563d 9884 48bd c67a b1bd
00000180: 7035 0fbe 29fe 083e 38b8 543d e5fa b13b
00000190: 915e 1fbe f013 c63b 9a4b ef3d b463 aabd
000001a0: 84c3 843c 0bd8 2d3d 7d6e 0f3e 17bf 16be
000001b0: 40a8 29bd 3936 f03d 765e c03d 2bc9 303c
000001c0: 502e d23c 094a d83c 679f 9a3d 82fe 01be
000001d0: 5cb3 3e3c 849d 093c af5d 23be 38f9 acbc
000001e0: c254 f23c 72f1 89bc dbf4 9a3d 1318 32bc
000001f0: 6e64 a3bc e4ec 843c bc91 82bd 60fb a2bc
00000200: 14ed c53c 5b36 4abc 0300 90bc 192e 2fbd
00000210: 6d97 e7bd 5fda b63d 4cd8 83bb 7d3d 46bb
00000220: 95a2 bf3d 6ea9 41bd c2fe ad3c ba13 43bd
00000230: b605 6dba 8e21 25bc 8810 bbbd 6e29 50bd
00000240: 363a d73b 3a91 99bd aed7 923a 4599 d23c
00000250: 5416 7b3d 3804 e23d 08f4 263d 9ca3 8d3d
00000260: 0f7d e1bc ba4c eabc c426 313a 92a2 3e3d
00000270: 08a4 afbd 815c 963d 783e f03d b35c fabd
00000280: 8501 afbd e7d7 373d 06fb ffbc 56fd 39bd
00000290: ee29 f1bd b724 293d d6f0 583c 0b27 c339
000002a0: f64f 3cbc 5613 683d ccfe 8d3d fbc7 0e3d
000002b0: ed48 7ebd 6568 1d3d 5a7a 923d fa88 af3d
000002c0: 2e73 1cbd f0ec 323d cdda 07bd be53 cabd
000002d0: 8932 ee3b 08ac a4bd 6c29 8dbd 10af d5bb
000002e0: 4c99 f6bc d0bc 483a 5dc3 99bd a66f 58bd
000002f0: 229b 05be cc3b 92bd 2271 633d fe4f aabd
00000300: 34ca 87bd 80de 64bb 1e18 f83c c1be 27bd
00000310: f7c2 033c 0cb1 803c a48b f9bc b2c1 bc3c
00000320: f392 393d 4077 d3bd 93d5 2ebd c67c 46bc
00000330: 0495 2b3d 2d98 adbd 183c 8b3d fd72 89bc
00000340: 1032 70bc 4941 4dbc 81a3 3b3d 045d d13c
00000350: aa56 e5bb 7ab3 95bb fbca 92bd 4aa7 a7bd
00000360: 2e4e 46bd 17f5 93bd fd6d 273e 3368 41bd
00000370: 2b37 ff3b c7e7 bcbc 6756 7f3d 8ac8 bfbd
00000380: 0330 21be 7b50 b13d 1173 c03d 47f1 fb3d
00000390: c1bf bb3c fa03 46bd 6c44 81bd c41f 03bc
000003a0: c65d 9e3d 90a6 793d 09c3 babd af81 b53d
000003b0: b484 cd3d 0a62 c3bd 6d16 973d 2eac b6bc
000003c0: e753 573d 459d e1bd 15f8 a4bc b05c afbc
000003d0: c05f 98bd 0f46 86bc 3061 ecbb bc0d 85bd
000003e0: 1fd7 a13d 22ad f1bd 99cc dabd 0257 a8bd
000003f0: e351 8cbb 3152 b1bd bb72 d3bd 1013 1dbd
0.013080704 -0.013926144 -0.031572703 -0.027995091 0.11927702 -0.09690731 -0.047766667 -0.14337115
0.035168115 -0.07833751 0.07709307 -0.04052856 -0.072751835 -0.105480716 -0.10719048 -0.0012795494
-0.06634543 -0.12840922 -0.12599815 -0.13371952 -0.03466188 0.05844236 -0.1774944 -0.017135615
-0.035249773 -0.099021606 -0.05199337 0.014331892 -0.14044221 0.0059907623 -0.030348595 -0.07416197
-0.007463795 -0.010906456 0.096407324 -0.11789734 -0.007057842 0.058058213 -0.17047496 0.056521688
-0.07181228 0.0041500097 -0.008675113 -0.11294222 -0.010837908 0.022085737 -0.0065894094 0.1612211
0.0054619364 0.08549333 0.1263801 -0.0427473 -0.019546567 0.06417002 0.09562926 -0.04714717
-0.1193085 0.1085218 -0.11570751 0.08676731 0.013655438 0.021008318 -0.05644857 -0.07638865
0.07089224 0.051846076 -0.04960526 0.016906222 -0.059929404 -0.004718568 -0.04879473 0.047580168
0.021273268 -0.11197071 0.04587271 0.061000764 -0.085162446 0.07652886 -0.094483435 0.09863658
-0.007309461 0.092663065 0.07751062 0.11266207 0.058060892 -0.09858122 0.0068144384 0.00152884
0.0460178 -0.15198334 -0.051837206 0.11824608 0.20227493 0.0524868 -0.048954576 -0.08665995
-0.13985229 0.13378204 0.051933497 0.0054315203 -0.15563418 0.006044857 0.11684342 -0.08319798
0.01620651 0.042442363 0.14006992 -0.14721332 -0.04142022 0.11729092 0.09393017 0.01079015
0.02565685 0.02640249 0.07549935 -0.12694743 0.011639442 0.008399371 -0.15953706 -0.02111493
0.029581431 -0.016838763 0.07566234 -0.010869998 -0.01994535 0.01622624 -0.06375453 -0.019895256
0.0241609 -0.012342061 -0.01757813 -0.04276857 -0.11308179 0.0892837 -0.0040235873 -0.0030249052
0.09357182 -0.04728072 0.021239642 -0.047626235 -0.00090416835 -0.010078801 -0.091340125 -0.05082076
0.0065682186 -0.07498403 0.0011203194 0.02570785 0.06130059 0.11035961 0.04076007 0.06915972
-0.027525453 -0.02860104 0.00067577907 0.046541758 -0.08576208 0.073418625 0.11730665 -0.12224712
-0.08545212 0.044883635 -0.031247627 -0.045407616 -0.117755756 0.04129478 0.0132410135 0.00037222388
-0.011493674 0.056659065 0.06933364 0.034858685 -0.062081266 0.038429637 0.07152243 0.08571048
-0.03819578 0.043682992 -0.03316765 -0.09879254 0.007269208 -0.08040625 -0.06892666 -0.006521113
-0.030102395 0.000765753 -0.07507966 -0.05284085 -0.1304746 -0.071403116 0.055527814 -0.083160385
-0.06630364 -0.003492266 0.030284937 -0.0409534 0.008042089 0.015709423 -0.030462094 0.02304158
0.045306157 -0.103254795 -0.04268415 -0.012114709 0.04189016 -0.08476291 0.06798571 -0.016778463
-0.014660373 -0.012527772 0.045810226 0.025557049 -0.0069988566 -0.0045685144 -0.07167622 -0.08186205
-0.0484144 -0.072244816 0.16350551 -0.047218513 0.007788559 -0.023059739 0.06233826 -0.09364422
-0.15740971 0.086579286 0.09396947 0.123018794 0.022918584 -0.048343636 -0.063118786 -0.008003179
0.077327296 0.060949862 -0.09119231 0.08862626 0.10035077 -0.09540184 0.07377324 -0.022298899
0.05257025 -0.11016325 -0.020137826 -0.021406502 -0.07440138 -0.016390828 -0.007213734 -0.0649676
0.07902359 -0.118006006 -0.10683555 -0.082197204 -0.0042822226 -0.08658255 -0.103246175 -0.038348258

sequential/dense_1/MatMul f4 [36, 512]
00000000: 1849 f3be 934c ffbd 8c50 0dbf 7491 27be
00000010: 2b92 e5be c94e 0dbf 5acd bebe 4f3b 05bf
00000020: 2ff0 87be 7280 80be e93e afbd 5cf0 0ebf
00000030: a29f 92be 395d 5ebf 5975 28bf 2398 a1be
00000040: 2ddc adbe ae3b c7be a207 b1be f1db f0be
00000050: 140c 10bf 4a24 d6be ff43 f3bd cea8 2ebe
00000060: 3f84 04be fc74 d8be ecf1 d9be 8046 b1be
00000070: ba45 90be 800a 21be 1e8f 5cbc 0766 4bbe
00000080: 7c07 f7bd 46f2 43bf d022 79be 0f8f bc3b
00000090: a4cc 90bd d67f 323b 8ed6 debd ef18 52be
000000a0: 17e2 1fbf cd06 a3be c38d a5be 1264 853d
000000b0: 9040 a23c 8ce3 8abe 8b73 1fbf 0e00 9ebe
000000c0: ebd9 a43d 18b0 d8be d26f e1be 5a0f b7be
000000d0: 19f8 fabe 02b3 f9be d566 b43d 78aa eebd
000000e0: dacd 73be 560b 9bbe 9b2f 623d 94f0 85bc
000000f0: 2254 debd dc97 dabe 0496 e2be 0a24 f1be
00000100: aa8e 82bd 0292 68be 4838 cabe 3408 99be
00000110: abaf 643d b0cf 8e3d 235b 28bf 26d1 a83c
00000120: e315 0ebf 6cbd 92be 9240 8b3c 3c44 54be
00000130: a8ec a5be f8a3 1cbe cddf e33d a670 933d
00000140: 3bec b8be e110 283d 9358 42be 2ae1 aebe
00000150: a598 95be 77b3 3abe 8ce8 0cbe 6ef5 c0be
00000160: c3e1 f1bd 6cce babe 3f54 f1be 163d 92be
00000170: be13 abbe a7ab 7dbd 7920 31be 8c24 f2bd
00000180: fb24 2cbe 3a94 b13d ac72 17bf b20b 15bf
00000190: c1c4 183b d7f0 babe 8fa5 cdbe 8b90 c0be
000001a0: 38d5 fabe 461a a3be 27bd a2be 58fa 39bd
000001b0: adff e7bd 5221 17bf 615f 14bf b570 b5be
000001c0: 4bdd 9e3d fa12 ccbe f1d6 78be 16be 04bf
000001d0: be1a eb3d f663 f9be 3566 b0be 3bd7 103d
000001e0: b8ed bf3d d494 0cbe 92e4 7d3c f0b8 c7be
000001f0: 9c7b b83c 2e47 a1be b7cb 28be 9cc3 19be
00000200: 064b dcbd 1f8d 9a3d 9d67 26be a8b2 9cbe
00000210: 246a a9be e4f8 08bf dfca f3bd 620e c2be
00000220: f28b c3bd 2cf2 1dbd e64d 73be 5f2e d7be
00000230: 208c 11bf f481 3abe 6add e7bc 2a2f 5ebe
00000240: bdbc 0ebd 421b 873d 2196 75be d656 78be
00000250: 91d6 b6be f9da 78bc 2d3c 8fbd b07e 96be
00000260: 7c41 66be 6008 8cbe c559 d6bd 6a26 013e
00000270: ea4d b4be 4428 6938 c7c7 b7be 8607 43be
00000280: 74e7 e6bc 60d3 bcbe e486 bf3d b8e8 8a3d
00000290: 2d95 40be de69 cabe 3ffc 4dbe 4a81 06bf
000002a0: dcd8 56be d39d d5bd 76ca 45be 956a a2be
000002b0: 0e31 81be e637 06bf 1340 61be 8432 81be
000002c0: 2903 b13d d6ef f2be c30c ba3d db32 0dbd
000002d0: ccfc a8be 51c3 d7be fc37 f8be 2962 38be
000002e0: d516 883c ede9 8ebe 962a 96be 7b28 963d
000002f0: 0c4d db3d e6bd 19bf bad9 ffbe ab92 9ebe
00000300: 7474 bebe 0216 99be 1d67 9b3d 6ae3 10bf
00000310: 79fb 2abe 229d aebd 7c71 b3be 564c 89be
00000320: 6579 03bf 0eb9 c3bd 5cea 2b3d e774 b4bd
00000330: b0c8 d9be 31a5 53bd 36d4 f13d 0f18 d4bd
00000340: 54b1 d0be f9f0 c93d 028a 023e 923a 42be
00000350: 1cbe 32be 4740 223d 8a6d 09be a999 03bf
00000360: ec79 7fbe 2f21 723c 33b0 93bd 5a17 14bf
00000370: fb9f 08bf c81e b4bc a4fa efbe 5d94 5c3d
00000380: 73d3 17bf f6d8 6cbc 4e5f 33be bc15 d9bd
00000390: ee01 f2be b75e 0abf e437 c63d a7cc e7be
000003a0: e3b4 b7bd 31d3 00bf 8b46 91be c52c 32be
000003b0: e006 63be 7f3f 4dbe 0d1e b73d 85f5 e93d
000003c0: de2f 6cbe 8fd0 7ebd 4f62 a4be 7283 12be
000003d0: 38ed 9dbe 3f9f 19bf 3f75 dfbe 8a95 afbe
000003e0: dd02 c4be 2648 01be c4c3 e4bd fc97 cabe
000003f0: d2ed cebc 4da2 acbe dc1b 93be 8fcc 6cbe
-0.47516704 -0.12465777 -0.5520103 -0.1636408 -0.4483808 -0.5519834 -0.37266046 -0.5204362
-0.26550433 -0.25097996 -0.08556921 -0.5583551 -0.28637415 -0.86860996 -0.6580406 -0.31561384
-0.33957043 -0.3891272 -0.34576136 -0.47042802 -0.5626843 -0.4182456 -0.118782036 -0.17056581
-0.12941073 -0.42276752 -0.42567384 -0.346241 -0.28178197 -0.15726662 -0.013461856 -0.19863139
-0.120619744 -0.76541555 -0.24329686 0.0057543586 -0.07070282 0.002723684 -0.10880767 -0.20517324
-0.6245436 -0.31841126 -0.32334718 0.065132275 0.019806176 -0.2712673 -0.6228568 -0.30859417
0.08049377 -0.4232185 -0.44030625 -0.357539 -0.49017408 -0.48769385 0.08808676 -0.11653608
-0.23808995 -0.30282086 0.05522118 -0.016350068 -0.10855891 -0.42693985 -0.44255078 -0.47097808
-0.06374867 -0.22711948 -0.39496064 -0.2988907 0.055831593 0.06973207 -0.65764064 0.020607542
-0.55502146 -0.28660142 0.016998563 -0.20729154 -0.32407117 -0.15296924 0.11126671 0.0719922
-0.3611773 0.041031722 -0.18979101 -0.34156162 -0.2921802 -0.18232523 -0.13760585 -0.37687248
-0.11810639 -0.36485612 -0.47134587 -0.2856223 -0.334135 -0.06193128 -0.17297544 -0.11823377
-0.16810982 0.0867085 -0.5915935 -0.5822097 0.0023310634 -0.3651187 -0.40165374 -0.37610278
-0.48990798 -0.31855983 -0.31784937 -0.045404762 -0.11328063 -0.5903522 -0.57958037 -0.3543755
0.07757052 -0.39858228 -0.24300744 -0.5185255 0.1147971 -0.48709077 -0.34452978 0.03536151
0.09371513 -0.13728648 0.01549639 -0.39008284 0.022519879 -0.31499618 -0.16483961 -0.15016025
-0.10756497 0.07546448 -0.16250463 -0.30605054 -0.3308879 -0.53504777 -0.11903929 -0.37901598
-0.09548177 -0.03856103 -0.23760185 -0.42027566 -0.5685444 -0.18213636 -0.02830382 -0.21697679
-0.034847964 0.06596996 -0.23983051 -0.24251875 -0.35710576 -0.015188926 -0.069938995 -0.2939353
-0.22485918 -0.2735014 -0.10466341 0.1261231 -0.35215694 5.558903e-05 -0.35894606 -0.19045839
-0.028186537 -0.36880016 0.093519 0.06782669 -0.18806906 -0.39533895 -0.20115755 -0.5254103
-0.20981163 -0.10430493 -0.19315514 -0.3172194 -0.25232738 -0.52429044 -0.21997099 -0.25233853
0.08643181 -0.47448605 0.09084465 -0.034472328 -0.3300537 -0.42141202 -0.48480213 -0.18006195
0.01661245 -0.27912846 -0.29329365 0.0733194 0.10708055 -0.6005539 -0.499708 -0.30971274
-0.37198222 -0.29899603 0.07588027 -0.56597006 -0.16697492 -0.085260645 -0.3504752 -0.26816052
-0.5135711 -0.09556781 0.04197155 -0.0881136 -0.42535925 -0.05167121 0.11808054 -0.10356151
-0.4076029 0.09860415 0.12747958 -0.18967655 -0.17455333 0.03961208 -0.13420692 -0.5140634
-0.24948853 0.014778419 -0.07211342 -0.5784813 -0.5336911 -0.021987334 -0.4687091 0.053852428
-0.5930702 -0.014456024 -0.17516825 -0.10599849 -0.47267097 -0.54050773 0.09678629 -0.45273325
-0.08970048 -0.5032225 -0.28374133 -0.1739989 -0.22170591 -0.20043753 0.089412786 0.11423782
-0.23065135 -0.062210616 -0.32106254 -0.14307955 -0.30845046 -0.60008615 -0.4364414 -0.34293777
-0.38283435 -0.12625179 -0.11170152 -0.3956908 -0.025259886 -0.33717576 -0.28732193 -0.23124908

sequential/conv2d/Conv2D f4 [16, 3, 3, 1]
00000000: 5f1a cabd 035c 0f3e 003f acbc 3255 113e
00000010: efc0 d93d 86e3 2cbe e0f0 a6bd 9f46 253d
00000020: ac9a 9abd b580 343e 874a 8ebd 2bf2 4c3e
00000030: c690 ecbd a810 8fbd e264 89bd b847 aebd
00000040: 4376 93bc 6302 50bd ae12 8e3d 3d5c e6bd
00000050: 5f71 0fbe 6c1a 983d 83b9 a0be 2b4c d6bd
00000060: 252d 9cbd 187e 90be 3447 04bd b715 923b
00000070: 18ca 68bd 2e18 eebd 66c2 7abd fc68 6d3d
00000080: 038f 81bd 202d e13c fd4a c73d 5483 3c3e
00000090: 813e 413e fcab bd3d fda9 29be b917 453e
000000a0: 7c51 9ebd c351 b13d 9e83 ef3d b285 683d
000000b0: a762 213d 2a49 a93c e1b9 7bbb a9f5 cebd
000000c0: b4b3 c0bd 9957 943d 8cfa 5e3e 04e8 8bbd
000000d0: 9b48 3d3d aedb da3d ccba c6bd 7ec8 49bd
000000e0: f823 c13d dfbf 073c 2a41 eabd a860 b83d
000000f0: e451 61bd f1b2 c6bd 7a3f 273e a268 56be
00000100: 524b e9bd 9c33 06be d62a 45be de34 1d3e
00000110: 05d9 393e cc81 00be 8771 483e 7d82 a33d
00000120: ad4c 973d 66a3 c4bc a2ab e2bd 5882 baba
00000130: 0a82 283e cdea 14bd 14c9 203e 37e6 62bd
00000140: 5af8 cebc 68ae 143e 1369 ec3d e753 93bd
00000150: 4ff2 c33d 42b5 1dbe 6cb0 46be 7708 33be
00000160: f46e 01be fcd7 d13d a717 3b3d d00b 703d
00000170: 63a7 52bd 56d7 683d 7df6 34be 2b11 3bbd
00000180: 3637 78be 19ca 11be c52e 07bd 9938 f73d
00000190: 74fa 28be 1c02 96bd af88 05be 6206 cfbd
000001a0: d473 b63b 859e 4a3e a4f6 543e 17a2 77bd
000001b0: b06b 04be 0237 e53c 6cb6 163e fda8 a13d
000001c0: e8fc a73d b8ad 523e 43a3 6abe 3b48 ea3d
000001d0: 4d74 d03d 7ed9 fa3d 8dc7 9aba 4375 e53c
000001e0: 274e 043d 866f 0ebe 1374 993c a724 993c
000001f0: 69f8 08bc 4e90 983d b132 003e 5efe 22be
00000200: 9e87 1f3e 506d 20be 9b80 28be a689 7b3e
00000210: b458 80bd aac9 1dbd 4da3 8e3d cd45 4f3e
00000220: 8de4 393e e735 a53d fdb5 ae3c 23f4 d43d
00000230: f65c 633d 3d26 10be 9e0f ddbc 015f 90bd
-0.09868311 0.13999943 -0.021026134 0.14192656 0.10632502 -0.16883668 -0.08151412 0.040350553
-0.075490326 0.17627223 -0.06947809 0.20014255 -0.11551051 -0.06985599 -0.06708695 -0.08509773
-0.018000728 -0.050783526 0.069371566 -0.11248062 -0.14008091 0.074269146 -0.31391534 -0.10463747
-0.07625798 -0.28221202 -0.032294467 0.004458155 -0.056833357 -0.11625706 -0.06122055 0.05796145
-0.063261054 0.027487338 0.097311 0.18409473 0.188715 0.09261319 -0.16568752 0.1924733
-0.07730386 0.08658173 0.11695026 0.056768127 0.039400723 0.02066477 -0.0038410353 -0.1010545
-0.09409276 0.072432704 0.21775264 -0.06831363 0.04621182 0.10686432 -0.097035974 -0.04926347
0.094306886 0.008285492 -0.1143821 0.09002811 -0.055009738 -0.09702099 0.16332808 -0.20938352
-0.11391319 -0.13105625 -0.19254622 0.15352198 0.18149193 -0.12549514 0.19574557 0.07983873
0.073876716 -0.024003696 -0.110678926 -0.0014229519 0.16455856 -0.036356736 0.15701705 -0.05539533
-0.025264908 0.14519656 0.11543479 -0.071937375 0.09567701 -0.15401176 -0.19403237 -0.17483698
-0.12639982 0.10246274 0.045676854 0.058605015 -0.051429164 0.056845985 -0.17672153 -0.04567067
-0.24239811 -0.1423725 -0.033003587 0.12071342 -0.1650179 -0.07324621 -0.13040422 -0.10108639
0.005568007 0.19787033 0.20797211 -0.060457315 -0.12931705 0.027980331 0.14718026 0.0789356
0.08202535 0.20574081 -0.22913842 0.11439558 0.101784326 0.122485146 -0.0011808738 0.028010016
0.032301094 -0.1390973 0.018732106 0.018694235 -0.008360007 0.07449399 0.12519337 -0.15917346
0.15579078 -0.156667 -0.16455309 0.24564227 -0.06266919 -0.0385224 0.06964741 0.2024147
0.18153591 0.08066922 0.021327013 0.10398128 0.055508576 -0.14077087 -0.026984986 -0.070493706

sequential/conv2d_1/Conv2D f4 [32, 3, 3, 16]
00000000: 1cba 92bc bc3f e1bd 38a8 19bd f4a7 2abc
00000010: 94fd d73d a8e9 903c 6a7f c53d cae2 ed3a
00000020: c831 ac3d 91d5 c1bd 9380 02be 1f9a 0b3d
00000030: 6931 83bd 5776 8e3d 9a05 223c da7e 053d
00000040: d904 dabc 947f 9abd 6b0c c5bd a54a f1bc
00000050: 6c7b 7a3d 099f 86bc 0eb8 503d 1ec9 783d
00000060: 0b5b 84bd 1829 ac3c 1260 66be 0add 183e
00000070: 957a 0fbd 19df 913d 13cd cabc fed0 21bd
00000080: ab5e c8bc 5043 e1bd aa6a 6dbd 45c5 bd3c
00000090: 31df d1bc 97ca e83d bf14 34bd a88e 81bd
000000a0: bc55 c5bd 9833 07be 6ea6 c5bc d6a4 06be
000000b0: 521e 8f3d 34c6 d23d f646 723d 4dae e03b
000000c0: 6042 4ebd da62 b3bd bd10 debc c4e0 863d
000000d0: 8c97 b13d dd34 153c 52c6 583d 16ad 4b3d
000000e0: 835e d3bd dec2 0d3d aafb dcbd d625 63bd
000000f0: 557a 153e 435f b0bd c671 5ebb 82aa b2bd
00000100: e182 86bd 6b17 853c d5af b6bd b10f 8e3d
00000110: ebc8 113d c79a d93c 3ec0 503c 8ef7 e33d
00000120: 9a56 b0bd 7d26 253d 68aa d7bd 34ad e53d
00000130: b837 d8bc b28c 073d 91bf e53d 9777 7a3c
00000140: 9549 c63d d7c5 52bd 31d8 7a3d 72a6 383d
00000150: b356 ecbc 6c5f f43d de91 cc3d 9b84 f03d
00000160: 04fd 17bd b075 503d 5119 d13c 0cb1 debd
00000170: 720a eb3c 40ca c83d 33f2 343c 6057 143d
00000180: 1f08 f7bd c7f9 76bd b832 47bd 28e9 b7bd
00000190: cd6a 723d d0a9 a3bb 1b4b cd3d 435e 0b3e
000001a0: 17a6 5cbd 6c1c e1bb e745 e33d 04f1 ba3d
000001b0: d11c 9cbd afd0 89bc ebd3 893d 1a95 a1bc
000001c0: d0ba 50bc 9dc4 8cbd 369c c7bd b0eb 39bc
000001d0: 711a 9cbb 8e36 2abd 9980 813d 1ef5 c0bd
000001e0: e724 8e3d 9fb8 65bd 83fa a2bd ddcc 47bc
000001f0: 39da cbbd 0709 5e3c 7a33 a93d 350c 2ebb
00000200: 67bd ce3d 9c4c 7cbd 6ef6 58bc 011e d7bd
00000210: ada2 2f3d fc98 60bd 0100 eebd 08af f53c
00000220: ffd3 52bd f8b1 cb3d 4765 82bd 44b3 b43d
00000230: 542a 5dbc 4770 c13b a10c 5dbd 13d8 353d
00000240: 9452 73bd 88b4 9cbd 0d4f 89bd 2a3e 853d
00000250: e683 e5bd 898f ae3d 6156 aabd 5566 acbd
00000260: 5e70 95ba e4bd eb3c 839b 663d 1fde 06bb
00000270: 39f5 c3bd 2146 eb3d 050c 45bd a644 06be
00000280: 18c8 77bc 5bed 843c f4af d7bd 42ff c13d
00000290: 24d5 ac3d 9c34 403d 999d bcbd a034 e63d
000002a0: bc4e c13d b689 d2bb 3cad 97bd c1b9 47bc
000002b0: 702c 7c3c 42ce 083e 7da7 ab3c c1da 083c
000002c0: a3ea a53b 8a16 983d 3591 193c e530 833c
000002d0: 6cf2 4fbc cd07 e9bd 5da5 bb3b 7ae2 05be
000002e0: 7844 f4bd 25d4 8f3c 412a cabd e0aa 543c
000002f0: 897f c03d 2da3 46bd 33f2 32bd d3ad c23b
00000300: 1046 78bd c418 8f3d 5237 75bd b4b8 a13c
00000310: b046 3dbd 05fb e23d de34 3abd aa13 95b9
00000320: f262 003c 3b13 9c3b cc39 d63d eb00 a63d
00000330: 18bf f73d 47e5 013d 91d2 c0bd 853a 943d
00000340: b917 cf3c 42d6 033d 007d 3bbd 6197 9f3d
00000350: 3831 b5bd a9bb d73d 82a6 57bd 1bba c4bc
00000360: 3c76 b8bd 713b e23d 36d6 e5bd c4c0 4a3d
00000370: 30fb 3cbd 01bd 113e a4c0 f43c e52e eb3d
00000380: 4f41 fcbc e4e3 4dbc 3ea9 e0bd 5e6d 863d
00000390: 70bc cabd 1921 97bd 6faa a23d 850f 42bd
000003a0: 89d6 c13c 1fdc ca3d e407 053d 4770 b4bd
000003b0: f7d9 723d 810f cf3d f1a9 efbc dfc0 173e
000003c0: 7f65 efbd 1ad9 1a3e 76bd 4c3d 3199 58bd
000003d0: 34a2 d4bc 53c6 cb3d abc4 bbbc d16f 963d
000003e0: e810 64bd 1f85 f23d b63b 2ebd 06b5 703d
000003f0: 0392 56bd 6b03 99bd 5f57 993d 3eb6 e3bc
-0.01791101 -0.109984845 -0.03751394 -0.01041602 0.10546413 0.017689541 0.09643443 0.0018149253
0.084079325 -0.09464563 -0.1274436 0.03408253 -0.064059086 0.06956165 0.009889031 0.03259168
-0.02661364 -0.07543865 -0.09621509 -0.029454539 0.06115286 -0.016433256 0.05095678 0.060738675
-0.064626776 0.021015689 -0.22497585 0.1492807 -0.035029013 0.071226306 -0.02475599 -0.03950595
-0.024459204 -0.10999167 -0.05796305 0.023165355 -0.025619121 0.11366766 -0.043965098 -0.06326038
-0.09635493 -0.13203275 -0.024127211 -0.13148817 0.06988205 0.102917105 0.059149705 0.006856716
-0.05035627 -0.08759089 -0.02710759 0.065858394 0.086714834 0.009106842 0.052923508 0.049725614
-0.10320761 0.034609668 -0.107901886 -0.055456005 0.14597447 -0.0861192 -0.0033942326 -0.08723928
-0.06567932 0.016246518 -0.08920256 0.06936587 0.035592 0.026563061 0.012741147 0.11131202
-0.08610268 0.04031991 -0.10530549 0.112146765 -0.026393756 0.033093162 0.11218179 0.0152873015
0.096820034 -0.051458206 0.061241332 0.04508061 -0.028849935 0.11932263 0.099887595 0.117440425
-0.03710653 0.050893486 0.025524767 -0.10873613 0.028691504 0.09804201 0.011044073 0.03621614
-0.12062096 -0.0602968 -0.048632354 -0.08980018 0.059183884 -0.0049946085 0.10024091 0.13610177
-0.053869333 -0.006869843 0.11097317 0.09128001 -0.07622684 -0.01682314 0.06729873 -0.019724417
-0.012739852 -0.068734385 -0.09746592 -0.011347696 -0.0047638942 -0.041555934 0.06323356 -0.094217524
0.06940632 -0.05608427 -0.079579376 -0.012194839 -0.09953732 0.013551957 0.082617715 -0.002655757
0.100947194 -0.061596498 -0.013242347 -0.1050377 0.04287975 -0.054833397 -0.116210945 0.029990688
-0.051471706 0.09946054 -0.06366973 0.08823255 -0.013498861 0.005903277 -0.053967122 0.044395518
-0.059404925 -0.07651621 -0.06704531 0.065059975 -0.11206798 0.08523471 -0.08317257 -0.08417956
-0.0011401286 0.02877707 0.05630065 -0.0020579172 -0.09568257 0.114879854 -0.048107166 -0.13112125
-0.01512339 0.016226461 -0.10531607 0.09472515 0.08439091 0.046925172 -0.09209747 0.11240506
0.094388455 -0.006425108 -0.07406089 -0.012190283 0.015391454 0.13359931 0.020953888 0.008352936
0.0050633713 0.07426174 0.009372999 0.016014526 -0.012692075 -0.11378441 0.0057265 -0.13074675
-0.11927122 0.017557213 -0.098713405 0.012980193 0.093993254 -0.04849546 -0.04368801 0.0059411316
-0.06061369 0.069871455 -0.05986721 0.019741394 -0.04620999 0.110830344 -0.045460574 -0.00028434145
0.00783609 0.0047630346 0.10460243 0.08105644 0.12096995 0.031712797 -0.09415162 0.07237724
0.025279867 0.032186754 -0.045773506 0.07792545 -0.08847278 0.1053384 -0.05264903 -0.024014523
-0.090069264 0.11046494 -0.11222498 0.049500242 -0.04613799 0.14232256 0.029877014 0.11483554
-0.03079286 -0.01256654 -0.109697804 0.06563829 -0.09899223 -0.0737936 0.07942664 -0.04737808
0.023661869 0.09905266 0.03247823 -0.08810478 0.0592899 0.10110379 -0.029255839 0.14819668
-0.11689281 0.1512188 0.04998537 -0.05288047 -0.02595625 0.09949937 -0.022920927 0.07345546
-0.055680186 0.11841797 -0.042537414 0.058766387 -0.05238534 -0.07471355 0.07487368 -0.02779686
