aldi/aldi.tflite (tflite, 735372 bytes, 20 tensors)

sequential/conv2d/BiasAdd/ReadVariableOp/resource f4 [16]
000000 6f 95 b7 bb e6 93 68 3b 6f 99 ce ba ab 69 ea 3c
       -0.0056025307 0.0035488545 -0.001576228 0.02861484
000010 a7 24 67 3a d6 28 77 3c ab 91 4a bb 91 2c 86 bc
       0.00088174123 0.01508542 -0.0030909579 -0.016378673
000020 e0 81 e0 bc 0b 31 81 3b db 0f c4 3c 67 39 b2 3b
       -0.02740568 0.003942614 0.023933342 0.005438972
000030 dd 76 59 3c 30 d3 15 3c d6 9f c6 3a 97 7c 84 3c
       0.013272968 0.009144589 0.0015153836 0.01617269

sequential/conv2d_1/BiasAdd/ReadVariableOp/resource f4 [32]
000000 e3 bb a6 3d a1 a0 b4 bc bc db 32 3c de 2e 7e bd
       0.08141305 -0.02204925 0.010916647 -0.062056415
000010 fb 4c a8 3c 86 ca 93 bd e3 af 95 bc 79 40 a9 ba
       0.02054452 -0.07216363 -0.018272346 -0.0012912891
000020 2e 0d 71 3b 5e 8c 04 3c c1 09 f8 bb 03 34 1a ba
       0.0036781537 0.008090107 -0.007569522 -0.0005882384
000030 da 75 03 3d 9b 80 27 bd 6c 69 59 3d d4 c1 f9 bc
       0.032094814 -0.040894132 0.053079054 -0.030487932
000040 ee 62 68 3b 32 e7 d4 bc 51 af c6 bc fa 1c 76 bc
       0.0035459357 -0.025989149 -0.02425352 -0.015021557
000050 87 7f c0 3c 6d fd c6 bc b7 38 10 bb 83 a6 f8 ba
       0.02349831 -0.024290765 -0.002200646 -0.0018970523
000060 df ce 6b bc 27 57 1b bd 9b 21 50 bd 14 d0 bd bc
       -0.014392584 -0.03792491 -0.0508133 -0.023170508
000070 49 8b cb bb 06 96 06 bd 73 98 5d bd 23 c8 85 bc
       -0.0062116724 -0.032857917 -0.054100465 -0.016330784

sequential/conv2d_2/BiasAdd/ReadVariableOp/resource f4 [64]
000000 80 07 cd 38 2a b9 bc 3c c3 d9 11 3d c8 4e 83 bc
       9.776559e-05 0.023037512 0.035608064 -0.016028777
000010 4a 87 a9 bc 43 bc 8a 3d 44 ae 47 bc 12 d1 15 3d
       -0.020694394 0.06774189 -0.012187544 0.036576338
000020 8c 0e 95 bd f2 3e ad 3c c2 81 67 bd 76 90 ed bd
       -0.07278165 0.021148179 -0.05652023 -0.11599819
000030 14 91 54 3d f6 c8 a0 bd ad bc 3f bb be e1 c5 bd
       0.05189617 -0.0785083 -0.0029256747 -0.096621975
000040 cd ce fd bc b1 ed 8f bd 8f ae 30 3d 55 22 55 bd
       -0.0309824 -0.07027758 0.043135222 -0.052034695
000050 bb c2 99 bd 34 6a bf bd ef 26 86 3d 7e 49 f5 bc
       -0.07507845 -0.093464285 0.06550395 -0.02994227
000060 18 72 a5 bc d2 22 d3 3a fd 74 14 bd 9c be d0 3c
       -0.020196006 0.00161084 -0.03624438 0.025481515
000070 80 17 8b 3b ea 07 0d 3d 23 ff ab bd bd db 90 bd
       0.004244745 0.034431376 -0.08398273 -0.07073162
000080 c1 23 4f bd 03 ac 8f bc 7f 83 6f bd d8 1a 33 bd
       -0.050571207 -0.017538076 -0.058475014 -0.043726772
000090 71 e4 9e bd ff ce 24 bd fe 7c 37 bd b2 80 5a bd
       -0.077584155 -0.04023647 -0.044796936 -0.05334539
0000a0 43 52 00 bd 89 b0 5d bc 0c 64 3d 3d fb d4 6b bd
       -0.03132845 -0.013530859 0.04623799 -0.05757616
0000b0 19 3e f9 3b 76 55 f6 3a ea 4b 0e bd b4 2b 2c bd
       0.0076062796 0.001879378 -0.034740366 -0.042033866
0000c0 af f7 e1 3b d8 4c ae bd 2f 24 99 bd 87 7c 20 bc
       0.0068959813 -0.085107505 -0.074776046 -0.009795315
0000d0 dc 6f dd bd ec 1e c3 3c 03 b0 b2 bd 1b d9 2d bc
       -0.10812351 0.023818456 -0.08724978 -0.010610844
0000e0 2a 94 4e bd d6 47 9e bd bd 2b db 39 cd ec 26 bd
       -0.05043427 -0.07728545 0.00041803523 -0.040753175
0000f0 df 64 07 bd 01 c8 cf bc af 08 ef bb 7f 1a 44 bd
       -0.033055183 -0.025363924 -0.0072947363 -0.04787683

sequential/conv2d_3/BiasAdd/ReadVariableOp/resource f4 [128]
000000 a8 6b 43 bd 34 05 18 bc bb fc ca 3c 0a f5 b5 3c
       -0.04771009 -0.009278584 0.024778714 0.02221157
000010 3f ed 11 3d c8 30 6a 3c 26 a2 30 be 77 94 9b ba
       0.035626646 0.014293857 -0.17249355 -0.0011869807
000020 d9 70 9e 3c a6 e8 8a 3b 29 e6 0e bd 96 4a 13 bd
       0.01934092 0.0042391596 -0.034887467 -0.035959803
000030 24 58 6e 3d fc d5 ec bc 03 86 08 3b c0 db 6f bd
       0.058189526 -0.02891063 0.002083183 -0.05855918
000040 75 81 62 bd f0 00 24 bd 06 15 a8 ba c5 fa 88 3d
       -0.05529924 -0.040039957 -0.0012823648 0.066884555
000050 7f 1e d1 bd 93 84 b2 3d 78 15 85 3a f4 5f 31 bd
       -0.10210895 0.08716693 0.0010153493 -0.0433044
000060 c9 5e 71 bd 30 c3 fd 3b c7 0d b0 3d c7 7a 0f bd
       -0.058928285 0.0077442154 0.08596378 -0.0350292
000070 9a e0 89 3d 6f 42 bd 3d e5 6e e1 bc 39 07 6d 3d
       0.067322925 0.09241187 -0.027518699 0.057868216
000080 49 78 d8 bb 3b a6 20 3d 04 ab 51 bd 7d e7 1a bd
       -0.006606136 0.03922103 -0.051188484 -0.03781842
000090 cb fd 3f bd 56 02 8d 3d d5 ad 63 3d ae 67 0c bd
       -0.046872895 0.06885211 0.0555857 -0.034278564
0000a0 cc d7 8f bc 0a aa 07 ba 40 be 44 bc 38 5f 30 3d
       -0.017558955 -0.0005175179 -0.01200825 0.043059558
0000b0 29 f7 40 3c 81 4b ab bd 9d b7 45 3c 67 23 34 ba
       0.011777678 -0.083640106 0.012067703 -0.00068717304
0000c0 2d bd 10 bd d2 82 23 3c d4 ea 50 bc f6 03 e8 3b
       -0.035336662 0.00997992 -0.0127513 0.0070805503
0000d0 19 99 31 3e d0 7f e8 3b 96 06 53 3d 2f f1 8d bd
       0.17343558 0.0070953146 0.051519953 -0.06930768
0000e0 7f 7c 11 3e da 76 ae bd ad 7b 07 3d f2 66 dc bc
       0.14207648 -0.08518763 0.03307693 -0.026904557
0000f0 d2 8a 2c bd d6 58 b3 bd bd c2 8e bd ff e9 cd bd
       -0.042124577 -0.087571785 -0.06970737 -0.10054397
000100 8f 7e 26 3e 15 90 68 3d b6 2c c2 bd 3f b8 f9 3c
       0.16259216 0.056778032 -0.09481184 0.030483363
000110 78 d7 0e bd 73 6d 8f bc 08 9d 7f 3d 8b c9 e9 bc
       -0.034873456 -0.017508244 0.062405616 -0.028538486
000120 d0 a3 a1 bd 73 af a4 bd 5c 75 31 3d 2d 33 e5 bc
       -0.07892573 -0.08041277 0.043324813 -0.027978504
000130 7b 32 76 bb 9b 8f 65 3c c3 48 fe 3c b3 76 a8 bc
       -0.003756671 0.014011289 0.031040555 -0.020564413
000140 ea 9a 18 3d e5 d6 22 3d b3 2c e2 bb 78 dc c2 bc
       0.037257113 0.03975572 -0.006902301 -0.023786768
000150 6d 1f f3 3a 42 df 0c be 0c 2d e8 bc 45 be 47 bd
       0.0018548794 -0.13757041 -0.028341793 -0.04876544
000160 cd e5 68 bd f3 de 2a bd 27 ec 32 bd 1c 7f be 3d
       -0.05685978 -0.041716527 -0.043682244 0.09301588
000170 22 50 15 bd d0 0c 7f 3b a9 56 9f bc b6 3f b5 bc
       -0.036453374 0.003891755 -0.019450502 -0.022125106
000180 2b fa 36 ba d3 ad 15 3d 85 77 66 bd a2 2d e8 3c
       -0.0006980027 0.036542725 -0.056266326 0.028342072
000190 4d ab 33 bc fd 41 b1 bc ec 22 1d bd f7 f8 46 bd
       -0.010966134 -0.021637911 -0.038363382 -0.048577275
0001a0 52 c0 84 bd b6 74 93 bc 27 cd ba 3d 77 fe b0 bd
       -0.06481995 -0.017999988 0.09121161 -0.08642285
0001b0 da 1f 10 3c 50 e2 9d bd 3f d1 1f bd 7c 7b 99 3d
       0.0087966565 -0.07709181 -0.039017912 0.07494256
0001c0 9f 50 41 3c eb 0a 5a 3d 8a 6c 3a bd 6b d5 a2 bc
       0.011799007 0.05323307 -0.045513667 -0.019877156
0001d0 21 3a 95 3d 60 0b 6a bc 89 23 06 3c 61 08 24 bd
       0.07286478 -0.014284939 0.008187183 -0.040047053
0001e0 52 5b 17 3d b3 01 99 b9 92 13 e5 bc ec 7f 82 bd
       0.036952324 -0.000291837 -0.027963433 -0.063720554
0001f0 58 48 54 3c db 2e 2c bc fa 18 d9 ba 28 8c 17 bd
       0.012956701 -0.010509218 -0.001656323 -0.036998898

sequential/dense/BiasAdd/ReadVariableOp/resource f4 [512]
000000 de 98 bc 3c 96 5b 38 3d dd 01 a0 bc 04 ff 8a 3c
       0.023022112 0.04500922 -0.019532138 0.016967304
000010 04 12 0b 3d 9a 5f 22 3d f0 6c 2f bb 5f 9e 84 bc
       0.033952728 0.039641954 -0.0026767813 -0.016188798
000020 86 e5 28 3d b8 20 2d 3d 87 2e ab 3c d6 a6 33 bc
       0.041234516 0.04226753 0.02089621 -0.01096507
000030 17 72 8c 3d e4 97 74 bc df d3 83 3d 2f c3 df 3c
       0.068576984 -0.014928792 0.064368956 0.02731475
000040 1d 6a a3 3c d0 aa 5e 3d 7f b4 06 3c 01 be 63 3c
       0.01994806 0.05436212 0.008221745 0.013900281
000050 e4 ad d7 3c c7 df 39 bc 28 3a 37 3d 20 41 d4 bc
       0.026328035 -0.011344857 0.044733196 -0.02590996
000060 bd d5 ae 3d b6 be 50 bd fc 50 83 3d 31 19 bc 3c
       0.08536861 -0.050963126 0.06411931 0.022961231
000070 e3 b7 bf 3d b8 db 25 3b 09 9b f9 bc 7b c3 e0 bc
       0.093612455 0.0025307965 -0.030469434 -0.027436962
000080 a0 98 c1 bd bc 44 a4 3c 5f dc 8d 3d c2 a6 87 bc
       -0.09452939 0.020052306 0.06926798 -0.016559009
000090 fd f3 95 3d 69 1d 3d 3d ad 43 1f 3d 67 cb a8 bd
       0.07321928 0.046170626 0.0388829 -0.08241921
0000a0 97 40 94 3c 60 82 18 3d 9b ba 1f bd a3 c0 38 bc
       0.018097205 0.03723371 -0.03899632 -0.011276397
0000b0 34 fc 0e 3d 4a 21 34 bd 2e ad a4 bd 8c 03 37 3d
       0.03490849 -0.04397706 -0.08040844 0.044681117
0000c0 aa af 23 3d ec e7 53 3d a7 dd a1 3d 06 01 05 3d
       0.03996245 0.05173485 0.07903605 0.03247168
0000d0 b6 37 05 bd de 0b d0 3b d0 9a 0d 3d 42 ec cc bc
       -0.032523833 0.006349071 0.03457147 -0.025015
0000e0 e0 ad 42 3d 69 9e bc 3d fd 21 da 3b ae 45 98 bd
       0.0475291 0.09209902 0.0066568838 -0.07435165
0000f0 bf d0 a0 3d 47 ec c3 3d 6a d8 8d bd ad 8e 33 ba
       0.07852315 0.09566551 -0.06926043 -0.00068495685
000100 cc 33 30 3d a4 ca 47 3d 92 32 96 3d 4b 2c e5 3d
       0.043018147 0.048777238 0.07333864 0.11190089
000110 58 4a 41 bd af 20 a0 3d aa 43 10 3c b1 ea 82 3d
       -0.04719004 0.07818734 0.008805195 0.0639242
000120 a9 55 77 3c dc 00 78 3d d4 ae ad 3d bd 1f 90 3c
       0.015096107 0.060547695 0.084806114 0.017593259
000130 fb 9c 3f bc 77 1d 4e bd 1d 9d fb 3c 07 c4 7d 3d
       -0.011695142 -0.05032107 0.030714566 0.061954524
000140 c9 6e b0 bb ba 02 9e 3c 71 95 03 3e f3 cf b9 3d
       -0.0053843004 0.01928841 0.12849976 0.09072866
000150 1d dc 36 3d 91 de e4 3c c5 7d ba bd b3 56 97 3d
       0.04464351 0.02793816 -0.0910602 0.073895834
000160 6c a6 c7 bd af a9 31 3d b5 c1 7d 3d a2 36 e9 3b
       -0.09748539 0.043374714 0.06195231 0.0071171084
000170 be 9d 2b bd dc 93 b7 3b c5 5e 0b 3d fa 02 24 bd
       -0.04189848 0.005602343 0.034025926 -0.0400419
000180 cb 9f 3e bd 33 38 db 3d 9b 44 85 3c 82 85 96 bd
       -0.04653911 0.107040785 0.016268065 -0.07349683
000190 19 00 02 bb 2f de 9e bd 69 67 67 3c 8b e7 cd 3d
       -0.0019836484 -0.07757222 0.014123776 0.10053929
0001a0 27 9a 62 bd 20 0a 82 3d 5a 75 2c 3b 74 7c 48 bd
       -0.055322792 0.063495874 0.0026315064 -0.048946813
0001b0 e6 59 93 bd e4 11 95 3d f0 eb b4 3d 4e d0 a1 3d
       -0.07194881 0.07278803 0.08834064 0.07901059
0001c0 96 e3 11 3d 38 33 48 bc 42 0d d2 3d 96 a1 ae bc
       0.035617433 -0.012219243 0.10256435 -0.021317285
0001d0 a7 1b 71 3d 80 1a ef bc c0 5b 89 bd 0a 8e ba 3c
       0.058864262 -0.02918744 -0.06706953 0.022772808
0001e0 1c c1 e0 bc 0f 22 64 bc 48 8f 4b 3d 9e cc 24 bb
       -0.027435832 -0.013924136 0.04969719 -0.0025146375
0001f0 ce e0 d6 bb 0c ab 1f 3d 61 d8 3f bc f0 f2 c5 bc
       -0.0065575605 0.038981482 -0.011709304 -0.024163693
000200 11 30 bf 3d d2 26 5b 3d 59 bf 94 bd 26 d2 3c bc
       0.0933534 0.05350382 -0.07263059 -0.011524713
000210 94 7f 98 bc e7 db 96 3c cd 62 d6 3d fb 99 02 3d
       -0.018615521 0.018415404 0.104680635 0.03188513
000220 3c 39 f0 3d fb f2 23 bd ea ae 94 3d 8d 16 40 3d
       0.117296666 -0.040026646 0.07259925 0.046896506
000230 e8 c4 c8 3d 11 03 cf 3c a6 9d 9d 3d fd d2 14 3d
       0.09803182 0.025270017 0.07696085 0.036334027
000240 70 c4 1c bc 98 17 85 3d 1f 0c a1 3d 1b 2b 14 3c
       -0.009568319 0.06498641 0.0786364 0.00904348
000250 af b7 46 3d e2 b8 6d 3d 92 03 c8 3b d2 e9 49 bd
       0.048515018 0.058037646 0.0061039412 -0.049295254
000260 42 40 0d 3d 31 d0 2b bd 63 ee d9 3d b7 b5 63 3d
       0.03448511 -0.041946594 0.10641172 0.05559322
000270 f3 0e d1 3b bd 0d eb 3c 73 d0 8a bc de 25 8d 3d
       0.006379956 0.028693074 -0.0169451 0.06891988
000280 8b 81 6d 3d 76 41 58 bb 78 d0 c0 3d c7 1b 46 bd
       0.05798487 -0.0032998002 0.09414762 -0.048366334
000290 4d 41 5b 3c 4f 5a 07 3e 37 2a 82 bb 27 d5 ec bc
       0.013382268 0.13218044 -0.0039723176 -0.028910233
0002a0 a0 b3 fd bc 81 1c 9b 3c bd 70 13 bd df 2c 16 3c
       -0.030969441 0.01893449 -0.035996187 0.009165972
0002b0 d4 b3 b1 3d b6 af 57 3d 4f b8 b1 3c b9 5b 01 3e
       0.086768776 0.052657805 0.02169433 0.12632646
0002c0 5d ed ed 3b 65 66 2e 3c 26 82 c3 bd ba 40 9c bc
       0.007260962 0.01064453 -0.09546308 -0.019073833
0002d0 70 e2 b8 3d 54 c9 3e 3d b2 df 66 3d f4 65 4c bd
       0.090275645 0.04657872 0.056365676 -0.049901918
0002e0 0b bb 8c 3c 9a e0 cd bb 06 f2 23 3d 77 bb ca 3d
       0.017179033 -0.006282878 0.040025733 0.09899037
0002f0 44 50 62 bd e3 e8 8a 3d 7d 0f ab bd d0 54 a8 bd
       -0.05525233 0.06782701 -0.083525635 -0.08219302
000300 b6 e0 90 3d 13 ce d8 3b b3 63 bf bc de 77 04 bd
       0.0707411 0.006616363 -0.02336297 -0.032340877
000310 31 72 e3 3c e2 e7 bb bc 27 c0 af 3c 68 86 6c bc
       0.027764412 -0.022937719 0.02145393 -0.014436342
000320 24 ef 01 3d 60 8a a0 3d aa 9d 15 3d e4 fa 56 3d
       0.031722203 0.07838893 0.036527313 0.05248536
000330 b8 1f f1 3c 99 00 e8 bc 4d 5c 70 3c 17 ee a2 3c
       0.02943407 -0.028320597 0.014670444 0.01988892
000340 02 02 1d bd 10 c2 4a 3d 9c a8 79 3c 72 29 16 3d
       -0.038331993 0.04950148 0.0152379535 0.03666062
000350 9b f7 91 3d 3f 19 a1 bc 57 7b d6 bc 15 36 4d bc
       0.07127305 -0.019665359 -0.02618186 -0.012525101
000360 c5 9a 29 3d 23 78 c1 bc ee c1 8c bd 54 bd ca 3c
       0.041407365 -0.023616856 -0.06872927 0.024748482
000370 e2 34 d8 bc 6b c4 c4 3d 79 41 b0 bc 8a dd d9 3c
       -0.026392404 0.09607776 -0.021515595 0.026594896
000380 c8 6e 98 bd 91 df 39 3d 06 b9 ff bb 38 62 48 bd
       -0.07443005 0.045379225 -0.007804039 -0.048921794
000390 73 32 5c bc ae 66 a3 3d d6 d5 9a 3d ab 29 a5 bc
       -0.013439762 0.07978569 0.07560317 -0.02016147
0003a0 19 cc 7d bc e6 54 02 3e 28 ec 90 bd 50 57 5c bc
       -0.015490555 0.12727699 -0.07076293 -0.013448551
0003b0 cf 43 ae 3a a0 dd 95 3d 67 7a 14 3d 03 6f 6c 3d
       0.0013295355 0.07317662 0.036249544 0.057723057
0003c0 68 1d e0 3b 94 7f aa 3d 2b 57 ab 3c bc b2 6e 3d
       0.006839443 0.08325115 0.020915588 0.058275923
0003d0 51 7c 60 bd f9 c1 18 bd 76 de 92 3d d7 8e 0c 3d
       -0.054806057 -0.03729436 0.07171337 0.03431591
0003e0 2e cd a9 bd 2a 8e 2c 3d f0 22 d8 ba 9d 43 1a bd
       -0.08291088 0.042127766 -0.0016489904 -0.037662137
0003f0 57 68 82 3d f0 a9 07 bd 5c c9 ad 3d 40 f9 1a 3d
       0.063675575 -0.03312105 0.08485672 0.03783536

sequential/dense_1/BiasAdd/ReadVariableOp/resource f4 [36]
000000 5b d1 00 3e b9 19 e3 bd 4b 04 68 bd 32 0b 86 bd
       0.12579863 -0.110888906 -0.05664472 -0.06545104
000010 50 3b b0 bd 4c 71 db bb 33 f5 e5 bd 0e 8f 04 be
       -0.08605063 -0.0066968556 -0.11228409 -0.12945196
000020 a0 2d 91 bd 3f 6f a9 bd e6 27 0d be 6c 76 b9 bd
       -0.070887804 -0.08273172 -0.13784751 -0.0905579
000030 7e 23 7b bd 7d 49 ab bd 1a cf f4 bd 5e 8d ac bd
       -0.061313145 -0.08363626 -0.11953564 -0.08425401
000040 fc 96 73 bc cc 0f 84 bd 44 d1 f7 bc e8 f1 52 bd
       -0.01486754 -0.064483255 -0.030251153 -0.05150023
000050 c7 9f f1 bd 90 f3 74 bd 33 84 01 be bb 67 a9 bd
       -0.11798053 -0.05980259 -0.12648086 -0.08271738
000060 1a e9 55 be e1 bc ba bd 3b cf 7d bd 69 55 c6 bd
       -0.20889702 -0.09118057 -0.06196521 -0.096842594
000070 76 49 23 be 10 69 02 be b8 fa 0e be 33 35 ce bd
       -0.15945992 -0.1273539 -0.13962829 -0.10068741
000080 86 a7 9b bd 7d 90 41 bd fb ca c8 bd 13 70 ec bd
       -0.07600312 -0.047256935 -0.098043405 -0.11544814

sequential/batch_normalization/FusedBatchNormV3 f4 [16]
000000 e6 69 b4 bd 30 34 11 be c4 63 cc be 23 c3 5d bf
       -0.08809261 -0.14180064 -0.39919865 -0.8662588
000010 c0 80 76 3b 7c 96 24 bf 0b fc ff be 65 98 08 bf
       0.0037613362 -0.6429212 -0.4999698 -0.53357536
000020 6e cd 0e bf e2 18 f3 be e7 f2 1a bf 91 e6 18 bf
       -0.5578221 -0.47479922 -0.6052689 -0.59726816
000030 7e e0 c7 be 08 7c af be 80 c0 c4 be 44 ee 32 bf
       -0.3903846 -0.34274316 -0.38428116 -0.69894814

sequential/batch_normalization/FusedBatchNormV31 f4 [16]
000000 20 48 ec 41 c7 d5 f8 41 66 cf 59 41 a8 0d 0c 41
       29.535217 31.104383 13.613134 8.753334
000010 8b 10 e9 41 0d 32 66 41 a1 41 2b 41 b0 ef 3b 41
       29.133078 14.387219 10.703523 11.746017
000020 d0 ab 22 41 ca 55 19 41 26 4d 1a 41 1f 91 a2 40
       10.166946 9.583445 9.643835 5.080215
000030 c3 b2 e9 41 ca 5d ec 41 12 09 6f 41 2e 90 cc 40
       29.212286 29.545795 14.939714 6.3926

sequential/batch_normalization_1/FusedBatchNormV3 f4 [32]
000000 02 27 5c bf bb 57 83 bf 45 c8 5b bf de 3a 2e bf
       -0.8599702 -1.0261148 -0.8585246 -0.68058574
000010 56 e1 68 bf 35 78 ba bf 6c be 27 bf 4a 0c 5e bf
       -0.90968835 -1.4567934 -0.65524936 -0.867375
000020 e9 05 2b bf 08 05 3e bf 06 67 4e bf c9 67 5c bf
       -0.66805893 -0.7422643 -0.8062595 -0.86095864
000030 e8 db 42 bf 22 7d 8d bf e9 22 53 bf 6c d8 46 bf
       -0.761168 -1.1053813 -0.82475144 -0.77673984
000040 48 43 59 bf 4a 48 ad bf d3 34 44 bf 9c 72 33 bf
       -0.8486829 -1.3537686 -0.76643103 -0.70096755
000050 70 ce 47 bf 4f 18 51 bf b6 93 48 bf 37 4f 72 bf
       -0.78049374 -0.81677717 -0.7835039 -0.9465212
000060 7f 15 33 bf 25 c7 ce bf a8 0a 23 bf e2 0d 3e bf
       -0.69954675 -1.6154524 -0.63688135 -0.74239933
000070 46 20 3b bf e0 19 6e bf ad 8f 4a bf aa 7b 4b bf
       -0.7309612 -0.9300823 -0.7912548 -0.7948557

sequential/batch_normalization_1/FusedBatchNormV31 f4 [32]
000000 b7 6b ce 3f 69 d5 17 40 1f 2c c6 3f 2a e2 af 3f
       1.6126622 2.3724005 1.5482215 1.3740895
000010 64 39 d9 3f 9b 76 4b 40 a2 9b a5 3f 9c c9 0a 40
       1.6970639 3.179114 1.293812 2.1685553
000020 3a d5 97 3f e8 b7 a4 3f eb 96 aa 3f bc 59 c9 3f
       1.1861947 1.2868624 1.3327307 1.573051
000030 4a 44 98 3f 4f a1 01 40 e5 0d df 3f 15 69 c9 3f
       1.189584 2.0254705 1.7426115 1.5735193
000040 92 a4 a6 3f 87 e7 11 40 d9 92 85 3f 90 c5 bf 3f
       1.3018973 2.2797563 1.0435439 1.4982166
000050 b3 f3 ac 3f 9a 9b 91 3f 8e b8 c4 3f 78 ad f1 3f
       1.3511871 1.1375611 1.5368822 1.8881063
000060 c2 ef ca 3f 30 04 14 40 06 92 ee 3f 64 45 ae 3f
       1.5854418 2.3127556 1.8638313 1.3614926
000070 fa eb ea 3f 9e 9b 25 40 eb 0c 8d 3f 08 c1 d1 3f
       1.8353264 2.5876231 1.1019567 1.6387033

sequential/batch_normalization_2/FusedBatchNormV3 f4 [64]
000000 9f 2d 94 bf 71 53 ae bf f1 42 98 bf 71 04 a2 bf
       -1.1576422 -1.3619214 -1.1895429 -1.2657605
000010 22 f4 9d bf 44 17 9e bf 2e 27 90 bf 61 a3 a0 bf
       -1.2340128 -1.235085 -1.1261957 -1.2549859
000020 29 4a 8d bf 1f 13 62 bf fa 98 67 bf 13 cf 94 bf
       -1.1038257 -0.88310426 -0.904678 -1.1625694
000030 31 3e b4 bf e8 2c 91 bf 58 40 7f bf 72 14 87 bf
       -1.4081479 -1.1341829 -0.99707556 -1.0553114
000040 98 6c 8c bf 0f 40 8d bf fd 0b a5 bf 86 b8 97 bf
       -1.097064 -1.1035174 -1.2894284 -1.1853187
000050 4b 0c 86 bf c9 f9 7c bf a1 6d 99 bf 26 59 b3 bf
       -1.0472502 -0.9881864 -1.1986581 -1.4011581
000060 e1 1a 8b bf 0f 2f 9c bf 3e 8c 98 bf 7d 4b 8f bf
       -1.0867578 -1.2201861 -1.1917799 -1.1194912
000070 5a fc 9d bf 4d 3b 90 bf 3a 33 99 bf 09 a5 65 bf
       -1.2342637 -1.1268097 -1.1968758 -0.8970495
000080 32 16 88 bf a2 f7 85 bf ca 83 a1 bf b5 76 8f bf
       -1.0631773 -1.0466197 -1.2618344 -1.1208102
000090 c1 67 94 bf 34 d1 75 bf f4 75 7b bf bc e4 9f bf
       -1.1594163 -0.96022344 -0.9822686 -1.2491679
0000a0 ba d8 70 bf 93 b1 a2 bf 8d f7 ac bf 2d 66 94 bf
       -0.940807 -1.2710441 -1.3513047 -1.1593682
0000b0 dd 6f 97 bf bd c9 95 bf 3c e8 81 bf 17 4f a7 bf
       -1.1831013 -1.1702191 -1.0148997 -1.3071011
0000c0 c4 28 9e bf 62 d5 91 bf ca 26 96 bf 8b 87 8a bf
       -1.2356191 -1.1393244 -1.1730587 -1.0822614
0000d0 d4 63 6e bf 18 02 71 bf dc b0 89 bf c7 3c b4 bf
       -0.93121076 -0.9414382 -1.0757098 -1.4081048
0000e0 dd fa 83 bf 11 5c 9a bf f0 f7 91 bf c8 3b 9f bf
       -1.0310932 -1.2059346 -1.140379 -1.2440119
0000f0 26 ad 87 bf bb 22 9b bf 19 a1 aa bf cd 61 91 bf
       -1.0599716 -1.2119974 -1.3330413 -1.1357971

sequential/batch_normalization_2/FusedBatchNormV31 f4 [64]
000000 e1 ec 88 3f 14 c9 9b 3f ab 70 8e 3f 0b 83 8c 3f
       1.069729 1.2170739 1.1128134 1.0977491
000010 cb 9c 9c 3f f1 a3 8d 3f 41 4f c6 3f 1e 38 85 3f
       1.223535 1.1065656 1.5492936 1.0407751
000020 44 cc b4 3f d8 d4 c1 3f 5e 4f 94 3f 6d e9 e9 3f
       1.4124837 1.514308 1.1586721 1.8274361
000030 1c 51 99 3f 4e df b6 3f 88 ea be 3f dd b8 ad 3f
       1.1977878 1.4286897 1.4915323 1.3572041
000040 fc ec a0 3f e7 d9 9a 3f 89 d6 97 3f 4a a2 ad 3f
       1.2572322 1.2097749 1.1862346 1.3565152
000050 34 41 b1 3f 53 2e a9 3f c8 5f b3 3f 42 c3 a3 3f
       1.3848023 1.3217262 1.4013605 1.2793963
000060 3a be b3 3f 93 77 a1 3f e2 39 8d 3f d8 85 bd 3f
       1.4042428 1.2614616 1.103329 1.4806471
000070 e5 00 bd 3f ed ad 7f 3f fe 2c 82 3f 0d b2 a0 3f
       1.4765898 0.99874765 1.016998 1.2554337
000080 e8 c5 61 3f 75 6f 65 3f 42 06 b8 3f 3c 3c 9a 3f
       0.88192606 0.89623195 1.437691 1.2049632
000090 ac 24 9d 3f aa 74 b8 3f 09 90 80 3f fe 45 a8 3f
       1.2276816 1.4410603 1.0043956 1.314636
0000a0 a6 80 8f 3f 1e 8f 85 3f 20 5f 68 3f 1e e9 74 3f
       1.1211135 1.0434301 0.9077015 0.9566821
0000b0 d8 b5 89 3f b1 ab 97 3f 7d 32 84 3f 7d 98 af 3f
       1.0758619 1.1849271 1.0327908 1.3718411
0000c0 e9 0e ac 3f 21 e1 88 3f 3c 68 b1 3f ad 22 a2 3f
       1.344205 1.0693704 1.3859935 1.2666832
0000d0 28 cf cb 3f fa 95 b3 3f cd 02 83 3f a1 b2 9f 3f
       1.5922594 1.4030144 1.023523 1.2476388
0000e0 17 56 b9 3f 9a e2 91 3f 57 7b 8d 3f 18 f2 8f 3f
       1.4479398 1.1397278 1.1053265 1.1245756
0000f0 c5 97 85 3f 5e 59 93 3f 9e 09 a5 3f 84 c2 b2 3f
       1.0436941 1.1511648 1.289356 1.3965611

sequential/batch_normalization_3/FusedBatchNormV3 f4 [128]
000000 27 bd 87 bf b0 c5 0d c0 61 a6 c3 bf 42 02 0f c0
       -1.06046 -2.215191 -1.528515 -2.2345128
000010 92 47 fb bf 9b 9f 0e c0 cd 5d 0c c0 26 d4 bd bf
       -1.9631217 -2.2284915 -2.1932251 -1.4830368
000020 ad 14 09 c0 cc 3c 39 c0 58 68 12 c0 a2 0f c5 bf
       -2.141887 -2.8943357 -2.2876186 -1.5395396
000030 6c 2b 11 c0 97 30 db bf 23 86 0d c0 f5 ff 3d c0
       -2.2682753 -1.7124203 -2.211312 -2.9687474
000040 2c 98 7d bf 75 1a 1d c0 f7 d4 39 bf ed 64 94 bf
       -0.9906032 -2.4547398 -0.72590584 -1.15933
000050 1c e2 d7 bf 7c bc ae bf f6 80 68 c0 79 e5 14 c0
       -1.6865878 -1.3651271 -3.6328712 -2.326506
000060 bb 4b 41 c0 0b 3a 1b c0 b3 83 1e c0 16 e0 d5 bf
       -3.0202472 -2.4254177 -2.4767883 -1.6709011
000070 91 4f f3 bf 5b 3d b6 bf a4 98 8f bf 27 c8 a7 bf
       -1.9008657 -1.4237474 -1.1218457 -1.3107957
000080 95 7e df be fd 6c 6d c0 86 88 19 c0 82 25 f2 bf
       -0.43651262 -3.709777 -2.3989577 -1.8917696
000090 27 fd e1 bf cd 72 41 bf 79 21 0d c0 8d 02 e6 bf
       -1.7655381 -0.755658 -2.205168 -1.7969528
0000a0 b3 22 58 c0 76 79 3a c0 8d b7 ed bf d6 5a e1 bf
       -3.3771179 -2.9136634 -1.857164 -1.7605846
0000b0 1c 5d 95 bf dd 83 98 bf 82 ae c8 bf 28 55 26 c0
       -1.166904 -1.1915241 -1.5678256 -2.5989475
0000c0 eb d6 1d c0 00 f5 3f c0 51 dc 24 c0 29 e1 53 c0
       -2.4662426 -2.9993286 -2.575947 -3.3106177
0000d0 61 2d 8c bf ae ee 1c c0 34 98 10 c0 3a ff 60 bf
       -1.0951349 -2.4520679 -2.2592897 -0.87889445
0000e0 38 8a e3 bf 4a 31 88 bf 1c e4 45 c0 78 d9 8a bf
       -1.7776556 -1.0640042 -3.0920477 -1.0847616
0000f0 a2 72 17 c0 f4 12 fc bf 61 4d 5a c0 7e 58 bf bf
       -2.3663716 -1.9693284 -3.4109728 -1.4948881
000100 c8 91 fc bf cf d0 1d c0 68 6b fe bf c1 05 09 c0
       -1.9731989 -2.4658697 -1.9876528 -2.1409762
000110 a8 26 cc bf 8f 3c 35 bf c7 b2 b2 bf bd b4 c6 bf
       -1.5949297 -0.7079553 -1.3960809 -1.5523907
000120 00 b9 25 c0 67 63 0b c0 ce 66 0f c0 5a 3b 1d c0
       -2.5894165 -2.177942 -2.2406497 -2.4567475
000130 23 cc b0 bf d1 64 c6 bf df 28 26 c0 b5 c6 2b c0
       -1.3812298 -1.5499517 -2.5962446 -2.684003
000140 3c 43 01 c0 e3 c5 18 c0 b9 08 6d bf cb 78 dd bf
       -2.0197287 -2.387078 -0.92591435 -1.7302488
000150 16 51 fb bf fc 64 eb bf 76 1b d1 bf d6 34 ae bf
       -1.963412 -1.8390193 -1.6336505 -1.3609874
000160 36 86 28 c0 08 3f b2 bf 4c f2 20 c0 1e 07 e2 bf
       -2.6331916 -1.3925486 -2.5147886 -1.7658422
000170 34 de c3 bf f5 25 13 c0 60 da 8d bf e2 ea 50 c0
       -1.5302186 -2.2991917 -1.1082268 -3.264336
000180 e2 88 b2 bf 36 c8 c1 bf 72 8a d7 bf f6 81 61 bf
       -1.3948023 -1.5139225 -1.6839125 -0.8808893
000190 37 7c 20 c0 6e 7c 43 c0 55 eb 94 bf a7 2b a2 bf
       -2.5075815 -3.0544696 -1.1634318 -1.2669572
0001a0 62 05 ef bf 00 fd f6 bf 65 87 39 c0 10 2f 03 c0
       -1.8673518 -1.929596 -2.8988888 -2.0497475
0001b0 9b 3e 1d c0 74 ca de bf 82 bd 27 c0 d4 53 c7 bf
       -2.4569461 -1.7405534 -2.6209416 -1.5572457
0001c0 fb d1 21 c0 02 f8 22 c0 70 63 21 c0 5f ab c2 bf
       -2.5284412 -2.5463872 -2.5216942 -1.5208548
0001d0 3a f2 1e c0 ad 1f 1d c0 ad 02 10 c0 88 1e 2f c0
       -2.4835343 -2.4550583 -2.2501633 -2.7362385
0001e0 9d 89 1d c0 1f 89 16 c0 70 3a 2a c0 22 87 0b c0
       -2.4615242 -2.3521192 -2.6598167 -2.1801229
0001f0 f4 12 fa bf 88 1a ee bf e2 38 60 c0 5c 28 e5 bf
       -1.9537034 -1.8601847 -3.5034719 -1.7902942

sequential/batch_normalization_3/FusedBatchNormV31 f4 [128]
000000 bd 7d 1d 40 97 bd e9 3f 84 b6 17 40 2c 52 f4 3f
       2.4607995 1.8260983 2.3705149 1.9087577
000010 cf 3f b5 3f 2d d5 f8 3f 47 25 e3 3f 26 fe c1 3f
       1.4160098 1.9440056 1.7745751 1.5155685
000020 39 f0 0e 40 c8 cb ec 3f e2 77 d6 3f fa 7c c0 3f
       2.233412 1.8499689 1.6755335 1.503814
000030 4d f1 e7 3f 8b 86 d9 3f 68 f3 e3 3f fb c2 dd 3f
       1.8120514 1.6994184 1.7808657 1.7325128
000040 c2 ff dd 3f c1 2d e0 3f 44 8c 2a 40 e2 36 22 40
       1.7343676 1.7513963 2.6648111 2.5345998
000050 23 e0 ea 3f 96 f2 ec 3f 34 a7 e2 3f 79 b4 d5 3f
       1.8349651 1.8511531 1.7707276 1.6695701
000060 35 86 ba 3f b0 02 e9 3f e2 6a f3 3f b2 ff e2 3f
       1.4572207 1.8203945 1.9016993 1.7734282
000070 84 4e f4 3f 28 86 d7 3f 9e cc 22 40 ed 39 da 3f
       1.9086461 1.6837816 2.5437388 1.7048928
000080 2e 53 4c 40 52 e1 d5 3f 95 d0 db 3f e9 51 c4 3f
       3.192577 1.6709387 1.7173029 1.5337497
000090 e1 01 fa 3f 12 90 26 40 e2 cf cb 3f f0 37 ec 3f
       1.9531823 2.6025434 1.5922816 1.8454571
0000a0 8f 55 d8 3f c3 81 02 40 16 a4 bc 3f 32 d1 05 40
       1.690111 2.03917 1.4737575 2.0908933
0000b0 c4 24 e3 3f a9 2b ec 3f b7 11 db 3f 11 72 03 40
       1.7745595 1.8450824 1.7114781 2.053837
0000c0 f7 ce f2 3f ce 25 f2 3f be 9a e0 3f d7 1a 05 40
       1.8969411 1.8917787 1.7547224 2.0797632
0000d0 f5 3f fa 3f 52 b3 ea 3f 50 c5 14 40 18 47 16 40
       1.9550768 1.8335974 2.324543 2.3480892
0000e0 b2 64 ec 3f 7e a0 1d 40 96 c6 0a 40 d2 ef bb 3f
       1.846823 2.4629207 2.1683707 1.4682562
0000f0 63 4c dd 3f 73 8d df 3f 70 ce ea 3f 23 a8 a8 3f
       1.7288936 1.7465042 1.834425 1.3176311
000100 92 46 14 40 eb 93 dc 3f be 9f c9 3f 33 be d2 3f
       2.3168073 1.7232641 1.5751874 1.6464294
000110 60 f8 06 40 b5 23 23 40 08 3f e4 3f 3d 4b 02 40
       2.1089096 2.5490544 1.7831736 2.0358422
000120 09 2f e3 3f f3 e3 e5 3f a0 65 0e 40 3a db 04 40
       1.7748729 1.796019 2.2249527 2.0758805
000130 bb 4f e5 3f 6a f1 01 40 71 f3 dd 3f 69 fb 09 40
       1.7914957 2.0303597 1.7339917 2.1559699
000140 02 6a b4 3f 6e 9e e4 3f 4d 32 fe 3f 54 c5 d4 3f
       1.4094851 1.7860849 1.98591 1.662272
000150 c9 3d e4 3f 48 34 01 40 a9 0e d9 3f aa d8 fd 3f
       1.7831355 2.018816 1.6957599 1.9831746
000160 e0 3e cc 3f 08 f1 fd 3f 01 18 dd 3f e6 0c dc 3f
       1.5956688 1.9839182 1.727295 1.7191436
000170 0b 7c ed 3f fa 87 ce 3f 7f 8d 0f 40 5f f1 fe 3f
       1.855348 1.6135247 2.2430112 1.9917411
000180 8e 0c 14 40 c5 b5 13 40 0a 30 0a 40 a2 c4 14 40
       2.3132663 2.3079693 2.159182 2.3245015
000190 4f 34 fd 3f a4 36 14 40 34 51 df 3f 21 8f 02 40
       1.9781588 2.315835 1.7446656 2.039986
0001a0 29 89 03 40 70 12 da 3f 8d 70 ed 3f 13 c5 e6 3f
       2.0552466 1.7036877 1.8549973 1.8028892
0001b0 61 84 de 3f d3 6c ec 3f 1a 24 c2 3f 91 61 1f 40
       1.7384149 1.847071 1.5167267 2.49033
0001c0 67 dc 03 40 72 fd ed 3f b8 02 11 40 22 7c 07 40
       2.0603273 1.859297 2.265791 2.1169515
0001d0 95 6a f2 3f 1a ae fe 3f fb 70 18 40 93 e7 cf 3f
       1.8938776 1.9896882 2.3818958 1.6242546
0001e0 04 0c f0 3f 68 cc fd 3f 4a f6 05 40 c2 58 d3 3f
       1.8753667 1.9828005 2.0931573 1.6511462
0001f0 47 3c b7 3f d1 c3 e8 3f 89 7c de 3f ea 80 f9 3f
       1.431527 1.8184758 1.7381755 1.9492466

sequential/dense/MatMul f4 [512, 128]
000000 3c 80 ab bd 8d 1f 9b 3d 6c 93 c8 bd dd 18 8f 3d
       -0.08374068 0.07574377 -0.097937435 0.06987164
000010 e9 78 87 bd aa ce 60 bc e4 e5 be bd 1d fc 91 bd
       -0.06614859 -0.013721148 -0.09321192 -0.07128165
000020 15 73 0c bd 66 3f 87 bd 65 50 7f bd 52 eb 91 3c
       -0.03428944 -0.06603889 -0.06233253 0.017812405
000030 de e7 a7 bd f3 e9 28 3d 61 14 39 bd 94 40 14 be
       -0.08198522 0.041238736 -0.04518545 -0.1447776
000040 43 7c 38 3d b5 e5 d1 3c 99 94 1d be 7a cc 86 3d
       0.04504038 0.025622228 -0.15388717 0.065819696
000050 19 29 b1 bd 7a dc 0c 3e 48 d7 27 be 4d c8 a1 3d
       -0.08650417 0.1375598 -0.16390717 0.078995325
000060 dd d5 8b bd be 6e 22 be ef 40 c1 bd 04 75 ae bc
       -0.068279006 -0.15862557 -0.09436213 -0.021296032
000070 d4 fc 12 3d d3 ce d3 bd 6e cc f7 3c a2 4a 25 be
       0.035885647 -0.10342183 0.030248847 -0.16141751
000080 4b e6 62 bd f4 e5 0d bd 7d be fd bd d0 dd 0d bd
       -0.055395406 -0.03464313 -0.123898484 -0.034635365
000090 c2 d1 b4 3d cc 1d 46 bd 22 1a e1 3d a0 2f 90 3d
       0.08829071 -0.04836826 0.109913126 0.07040334
0000a0 aa a9 77 bd 67 86 5a 3d d7 e0 ef 3d 17 5e 69 3d
       -0.06046454 0.053350832 0.11712807 0.056974497
0000b0 e1 6c 18 3e 7a 34 d8 bd 6f 7d 7a 3d 0b 71 bf bc
       0.14885284 -0.10556884 0.06115478 -0.023369333
0000c0 4b 06 51 bc 73 7f 2f bd 92 0a 08 be e3 82 e1 3d
       -0.012757848 -0.042846154 -0.13285282 0.11011293
0000d0 f7 01 04 bd 38 e8 57 3d f8 38 a7 bd f6 28 4b bd
       -0.032228436 0.052711695 -0.08165163 -0.04959961
0000e0 e4 21 66 3d 9c 39 1b be d4 86 a4 bd 8e 78 d2 bb
       0.056184664 -0.15158695 -0.08033529 -0.0064230626
0000f0 72 02 2e bb a8 f1 17 3e ef 3d a4 3b 02 1d 0a be
       -0.002655175 0.14838278 0.005012266 -0.13487628
000100 92 6b d2 3d 99 af 9a 3d 30 fc cc 3d d9 14 39 3c
       0.10274424 0.07553024 0.100090384 0.011296474
000110 51 a0 d7 3d 46 f3 de 3c 3b fe a9 3d 89 a2 ea 3d
       0.10528625 0.027215611 0.08300444 0.11456782
000120 fb a8 38 be ce 62 fc bb c8 eb db 3a fd 60 cc 3c
       -0.18033211 -0.007702208 0.0016778642 0.024948591
000130 82 98 f8 3c a6 0f 7e bd 37 1e 14 3d 2b ef 98 3d
       0.030346159 -0.062026642 0.036161628 0.07467493
000140 34 2f 45 3d c9 89 7e bd c8 36 12 3e eb a0 17 3d
       0.04814072 -0.06214312 0.1427871 0.037018698
000150 a8 d9 5a bb bf 41 83 3d eb 6a f1 bd ea 14 da bd
       -0.0033393893 0.064090244 -0.11787971 -0.1064852
000160 d7 04 3d 3d 4f 7d 29 bd bb 86 9e bc 37 94 bf 3d
       0.046147194 -0.04137927 -0.019351354 0.093544416
000170 99 43 5f bc 91 bb 60 3d aa 0e ea 3d 0c 70 a8 bd
       -0.013626956 0.054866377 0.11428578 -0.08224496
000180 78 c5 b8 3d be b9 8c 3d 15 df b8 3d e2 4e ea 3c
       0.09022039 0.06871365 0.090269245 0.028602067
000190 9a 75 86 bd 30 e9 f3 3c fd 4c a1 bd 0c b8 0b 3d
       -0.065653995 0.029774278 -0.078760125 0.034111068
0001a0 9f 1f 4e bd 87 b9 9c bd 7b 7a 77 3c f5 30 db bd
       -0.050323125 -0.07652574 0.015104885 -0.10702697
0001b0 54 48 a8 bd 2c 8f 76 3d 05 f6 0d 3d 28 d1 3b be
       -0.082169205 0.060195133 0.03465845 -0.18341506
0001c0 64 de b6 3d 88 20 c0 3d 50 cf f1 3d 61 88 53 3d
       0.089291364 0.09381205 0.1180712 0.051643733
0001d0 ef da 83 bd a3 65 87 3c 49 c3 f6 bc 3c 54 ab 3d
       -0.06438243 0.016527956 -0.030122416 0.08365676
0001e0 92 7d 4c bd 96 aa 34 bd 89 58 87 bc 5f 67 44 bc
       -0.04992444 -0.044107996 -0.016521709 -0.011987536
0001f0 84 b9 34 3d 8f ca dc 3d be a3 25 3d 91 31 b6 3c
       0.044122234 0.107808225 0.04043936 0.022240432
000200 e5 3a fc 3b ba 46 b1 bd 0b 2e 9a bd 0f 0c d3 3d
       0.0076974505 -0.08656068 -0.07528313 0.10305034
000210 2f ef 89 bd 50 0b 86 bd 26 2f 79 bc 34 5c 65 3c
       -0.06735074 -0.065451264 -0.015208995 0.013999034
000220 6b 94 de bc 66 72 3e bd 3c 4f 9e 3d 50 50 07 ba
       -0.02717038 -0.046495818 0.077299565 -0.0005161809
000230 f7 61 13 3e 8d a6 fb 3d a4 0c 92 bc 71 5c a2 bd
       0.1439284 0.122876264 -0.017828293 -0.07927788
000240 7f f7 98 bb 37 8e 40 3d 92 2d 1a be d3 98 f6 bc
       -0.0046681757 0.047010627 -0.15056446 -0.03010217
000250 88 3e 43 3e 42 1a fa bd 92 19 4f bd 77 6a c8 bd
       0.19066823 -0.122120395 -0.050561495 -0.097859316
000260 e6 0b a7 3d 76 e7 47 bc 71 b3 98 bd 8b 30 6f ba
       0.08156566 -0.012201181 -0.07456101 -0.000912436
000270 1e 99 1b 3d 98 06 7c bd 9c c1 0c 3e 7e 2d c9 3d
       0.03798782 -0.061529726 0.13745731 0.0982313
000280 be cd d7 bc 3b aa 54 bd dc 97 a9 bd 5f 4b 26 3c
       -0.026343223 -0.051920157 -0.08280918 0.010149806
000290 97 7c 53 bd c1 61 d7 bc 58 5c 22 be 8e e8 8c bd
       -0.05163249 -0.02629173 -0.15855539 -0.06880294
0002a0 01 04 96 3d 77 37 d2 3d 6d aa 1f 3c 1c 0c 0f bd
       0.073249824 0.10264485 0.0097452225 -0.034923658
0002b0 86 82 2b 3d 02 cd ec 3d f0 30 67 3d 6d aa d0 3c
       0.041872524 0.1156254 0.056443155 0.02547189
0002c0 b7 c9 76 3c 92 be 9b bd 6d fb f7 bd aa 84 7f 3b
       0.015062741 -0.07604708 -0.121085025 0.0038988986
0002d0 85 94 62 bd 9c 13 84 bc b3 ba 72 bd d2 06 f8 bd
       -0.05531742 -0.016122632 -0.05926008 -0.12110676
0002e0 f8 c0 f7 3c ba 87 f0 3c d4 39 bb 3c f6 97 62 3b
       0.030243382 0.029361594 0.022854723 0.003457544
0002f0 5f 7c ca 3c 23 14 b5 3c d7 13 6c 3d cd cc c8 3d
       0.024717508 0.022104328 0.05763611 0.09804688
000300 23 7c 40 bc f3 03 f8 3c a6 c5 60 3d d3 5a db bd
       -0.0117483465 0.03027532 0.054875992 -0.10710683
000310 9a 99 ff 3b 20 68 02 bd 09 cd cb bc ce 22 5c bc
       0.007800293 -0.031837583 -0.024878042 -0.013436032
000320 5e 72 c5 3c 02 b9 d6 3d 8a 9c ce 3c 92 de 83 3d
       0.024102386 0.10484506 0.025221128 0.06438936
000330 f1 7c df bc ad 99 96 bd c9 d2 1d 3d 6d 86 94 bb
       -0.027281256 -0.0735353 0.0385311 -0.0045326264
000340 40 d0 85 3a c7 0e 1a 3b fe 6e 9f 3c 61 1e 44 bc
       0.0010209158 0.0023507343 0.019462105 -0.0119701335
000350 c6 e4 57 3d 33 98 b7 3d 68 38 89 bd 21 80 8a 3c
       0.05270841 0.089645766 -0.06700212 0.0169068
000360 26 e3 50 bd 5e 37 03 3e b6 d3 23 bc ca e3 73 be
       -0.050997876 0.1281409 -0.009999206 -0.23817363
000370 2b 82 bb 3d 13 ba 5c bd ff 4b aa 3c 22 c8 24 3e
       0.09155687 -0.05388839 0.02078819 0.1609197
000380 53 0f ae bd 66 a5 93 3d e2 78 b0 bd 5f 4e 98 3d
       -0.084990166 0.072092816 -0.086168066 0.07436823
000390 00 9a bc bd 37 8c 0b 3d 88 51 c5 3c 5a 77 c4 3d
       -0.09209061 0.034069266 0.024086729 0.09593077
0003a0 2c 0a 27 3c b1 9e 02 3e 9f 90 87 bd 9f c5 06 bb
       0.010195296 0.12755848 -0.06619381 -0.0020564569
0003b0 27 0d b6 3b 17 98 ff bd 19 88 7d 3c 47 b2 ae bd
       0.005555767 -0.12480181 0.015474343 -0.085300975
0003c0 6f 93 c7 3d af 5e 30 bd 41 02 9e bb 94 37 a3 3c
       0.097449176 -0.043059047 -0.004822046 0.019923963
0003d0 6b 2a 5c 3c 8c 1f 8c 3d a2 51 1f 3d 90 ee b0 bd
       0.013437848 0.068419546 0.03889621 -0.08639252
0003e0 5c 51 7d bd 72 ff f2 bd f3 f9 7a 3c c7 9b 64 3d
       -0.06184517 -0.118651286 0.015318382 0.055812623
0003f0 d1 0d 17 3d 80 99 9f 3d 2c d8 47 3d 0d a2 87 3d
       0.03687841 0.0779295 0.048790142 0.066227056

sequential/dense_1/MatMul f4 [36, 512]
000000 03 c2 03 bf 5c 57 a5 3d df 57 3c be 17 65 c5 be
       -0.51467913 0.08073303 -0.18392895 -0.38553688
000010 ca 0a ac be e4 9a 1a bf 82 c8 fe be 6b 0a c3 bc
       -0.3360198 -0.60392594 -0.4976235 -0.023808679
000020 c7 a0 95 be 15 93 99 bd 58 a1 c4 be 98 a7 7d 3d
       -0.29224226 -0.07498757 -0.38404346 0.061927408
000030 9e 63 75 3d 7c 81 6c be e6 6e fe 3d ac 07 19 bc
       0.059909455 -0.2309627 0.12423496 -0.009340208
000040 cf 2f 8a bd c6 ee da bd 33 31 c2 be 10 cd 0d bf
       -0.067474 -0.10690074 -0.3792816 -0.55391026
000050 ba 7a af be c4 26 a7 be 57 bd ef be 53 42 64 be
       -0.3427332 -0.32646763 -0.46824142 -0.22290926
000060 15 02 ba be ee de 77 be bd 86 43 3d fd 91 11 3d
       -0.36329713 -0.24206135 0.04773592 0.035539616
000070 40 5b 2f bd 79 8e 31 3e 64 60 81 be af a0 6e be
       -0.042811632 0.17339505 -0.25268853 -0.23303483
000080 9a 4e 93 be b8 a7 40 3d cf 0c ab 3d f5 b8 ba be
       -0.28770906 0.04703495 0.083520524 -0.36469236
000090 bb 54 c4 3d 19 3c 01 bf a7 a3 2e be c7 64 81 be
       0.095864736 -0.50482327 -0.17054616 -0.252722
0000a0 8c c7 06 bf 64 12 b9 bd fa f5 72 be d7 c2 36 be
       -0.52648234 -0.09036711 -0.23726645 -0.17847763
0000b0 23 45 7a be 16 d4 b8 be f7 df 82 be 7e 97 0b bf
       -0.24440436 -0.3609931 -0.25561497 -0.54528034
0000c0 21 fe ae be 35 45 0a bf a3 7d e4 bd ef ad 25 bc
       -0.3417826 -0.5401185 -0.11156776 -0.01011227
0000d0 af 7a 49 be 23 7a 92 be 2f 22 85 3d 96 05 61 be
       -0.19675706 -0.28608808 0.06500661 -0.21974787
0000e0 69 38 21 bf 47 32 04 3b 62 91 ba be 80 3d 64 be
       -0.629767 0.002017157 -0.36439043 -0.22289085
0000f0 7a 53 8f 3d 1b f1 b5 3d a2 f1 da be 6b 18 d1 be
       0.06998344 0.08883878 -0.42762476 -0.40838942
000100 af f1 b4 bd 32 f0 16 bf 4a d5 9b 3d f0 e7 01 bf
       -0.0883516 -0.5896026 0.07609041 -0.50744534
000110 bd c2 8a be f7 59 28 be ec 96 a3 be 65 09 ab be
       -0.271017 -0.16440569 -0.31951082 -0.33405605
000120 aa 34 6d bb b2 10 a1 bd 0b d4 67 bf 19 0a 1a be
       -0.003619472 -0.078645125 -0.90557927 -0.15042914
000130 80 32 e6 be 25 51 d3 be bd 31 b3 be b0 b9 25 bf
       -0.44960403 -0.41272846 -0.34998885 -0.6473646
000140 9e c6 0a be cd e0 5c 3c bb 17 ac be 7c 50 26 be
       -0.13552329 0.013481331 -0.33611855 -0.1624164
000150 2e 25 99 bd df f2 37 3d d0 e9 8d be c4 5a 06 bf
       -0.074777946 0.044909354 -0.27717447 -0.5248225
000160 f8 08 89 be 62 6e c6 be 01 5a 22 bf 3a 6b 2a bf
       -0.26764655 -0.3875609 -0.63418585 -0.66569865
000170 e6 c7 c5 be 4b 9d be 3d 8f 83 48 be b6 b7 8a be
       -0.38629073 0.09307345 -0.19581436 -0.27093285
000180 f2 d1 5e be 6d fc 68 bd f4 ee ef be 3e 57 65 be
       -0.21759775 -0.056881357 -0.46861994 -0.22396562
000190 f2 56 5e 3d d0 e7 64 be 04 c2 ab bc e0 0f 97 be
       0.054282136 -0.22354054 -0.020966537 -0.295043
0001a0 55 9c f9 be 42 9b 99 be 68 5b 9a be d1 e5 c8 be
       -0.48752084 -0.30001265 -0.30147862 -0.39237836
0001b0 91 70 73 be 69 7f 06 bf 07 d9 d3 3c da 6a 5b 3d
       -0.2377341 -0.5253816 0.025860323 0.0535687
0001c0 31 6c 32 be ed 48 86 be 48 84 12 bc c5 fa f7 bd
       -0.17424084 -0.26227513 -0.008942671 -0.12108377
0001d0 af a9 31 bf fe c8 8b be df c5 cc be 93 97 3d bc
       -0.6939954 -0.27301782 -0.39994714 -0.011571783
0001e0 d2 b3 4c be 74 08 ec be 50 b4 5c 3d da 8c a6 be
       -0.19990471 -0.461002 0.053882897 -0.32529336
0001f0 0a bc 03 3d 5c 01 ca be f3 b6 b3 be 0d 37 b8 be
       0.03216175 -0.39454162 -0.35100517 -0.359795
000200 3a 6e d8 be 12 ca 42 bc ca 70 9f be 20 c1 29 bf
       -0.42271596 -0.011888998 -0.3114074 -0.6631031
000210 31 38 d0 be cb dc 91 3d 81 19 82 3c d2 e6 ab be
       -0.4066787 0.07122191 0.015881302 -0.3357454
000220 cc 04 ce be 45 bf 63 be c1 54 18 bd 05 73 f1 be
       -0.40238035 -0.22240932 -0.037190203 -0.47158065
000230 f0 14 cf be 9a d0 62 be fe 2c 34 3d 15 07 24 bf
       -0.40445662 -0.22149888 0.04398822 -0.64073306
000240 5e 18 23 be e4 02 82 be 89 3f 39 3d 55 61 96 bd
       -0.15927264 -0.2539283 0.045226607 -0.07342783
000250 70 e4 93 be 25 86 77 bd ec c1 08 3b 1d 7a 8e be
       -0.2888522 -0.060430665 0.002086754 -0.2782754
000260 ef 79 a0 3d 72 d9 23 be c9 9c 3b be 13 e4 6d 3d
       0.07835757 -0.16000918 -0.18321528 0.058078837
000270 c9 e0 97 be a3 bd e3 39 ea 5e dd be 16 a0 be be
       -0.29663685 0.00043438104 -0.43236476 -0.3723151
000280 27 01 03 3d c0 a3 d3 be e7 7b b4 be 3f 0d 02 be
       0.03198352 -0.4133587 -0.3525078 -0.12700365
000290 ca a0 23 bf 3d db e0 be 71 b4 bc be bd f8 e2 be
       -0.6391722 -0.43917266 -0.36856416 -0.44330397
0002a0 65 e6 ab be 86 11 04 bf 26 0a 8c be 85 89 05 be
       -0.33574215 -0.5158924 -0.27351493 -0.13040741
0002b0 3c 6c 50 bf 53 a2 06 bf 9c 60 a0 be 45 80 d6 3c
       -0.8141515 -0.5259144 -0.31323707 0.02618421
0002c0 ce e0 a4 be 00 99 ec be 61 62 71 be 5b da 16 bf
       -0.32202762 -0.4621048 -0.23572685 -0.58926934
0002d0 68 9a a2 bd b7 35 7b 3d 66 50 a3 be 1d 13 23 be
       -0.07939607 0.061330523 -0.31897277 -0.1592526
0002e0 f3 1b d3 3d 7d 49 c6 be 84 c3 55 3d 9d b3 c4 3d
       0.10308065 -0.38727942 0.05218841 0.09604571
0002f0 eb 6d c7 be 64 f1 31 be 37 be 42 be 4c a8 17 be
       -0.38951048 -0.1737724 -0.19017874 -0.14810294
000300 72 62 c6 bb a0 74 0a 3c 14 cb 0c 3e b0 a4 a7 be
       -0.006054216 0.008450657 0.13749343 -0.32742834
000310 ea f9 bd be 6e f9 41 be 76 1d cc be 11 cb 34 bf
       -0.37104732 -0.18942806 -0.39866227 -0.70622355
000320 65 3c 1f bf b2 0b b7 3d 25 e2 f9 bc 02 ec 0c bc
       -0.6220153 0.089377776 -0.030503342 -0.0086011905
000330 52 b2 aa bd bd 73 ec be 54 5b db be 2d 5d f6 bd
       -0.08334793 -0.4618205 -0.42843115 -0.120294906
000340 93 72 ff be 26 f7 95 be aa b9 c1 be 43 63 99 3d
       -0.498921 -0.29290122 -0.37836963 0.07489636
000350 0e 8c 39 3d f7 2d ef be fb d9 7a 3d d2 76 8f be
       0.045299582 -0.46714756 0.06124304 -0.2802034
000360 03 6b 0a bd da 5d 86 be 0d ed 9b be 50 97 c9 be
       -0.03379346 -0.26243478 -0.30454293 -0.39373255
000370 0a eb 08 bf 6a 81 f1 bd 8a 64 23 bf 2e 06 4f be
       -0.5348364 -0.11792262 -0.63825285 -0.20217201
000380 14 be ab 3d 8a 53 6a 3d 78 9e c5 be 45 59 a8 3b
       0.08385864 0.057208575 -0.38597465 0.005137595
000390 0f 07 85 be 72 1d 2f bd b1 26 b4 3d 9f 70 94 be
       -0.25981948 -0.04275269 0.08796442 -0.28992173
0003a0 f7 51 ad be 11 d6 93 be b1 55 f9 bd 99 47 4a be
       -0.33851597 -0.28874257 -0.121745475 -0.19753875
0003b0 d0 a4 9c be 3a ef 12 bf 44 10 08 be 5f b2 21 bd
       -0.30594492 -0.5739628 -0.13287455 -0.03947675
0003c0 fe 40 5d 3d c4 6d 12 bf 22 36 cf bc fd b0 10 bf
       0.05401706 -0.5719874 -0.025294367 -0.5652006
0003d0 63 8c 64 be 96 33 a9 be cd 4a 00 be 18 3e 66 3d
       -0.22319178 -0.3304717 -0.12528534 0.05621156
0003e0 41 81 55 be 87 b0 2b bb 0b dc 3b be 59 d8 a7 be
       -0.20850088 -0.0026197748 -0.18345658 -0.32782248
0003f0 05 7d 16 bd 51 06 05 be 9b 1e 9b bc b7 78 96 3d
       -0.03674032 -0.12990691 -0.018935492 0.07347243

sequential/conv2d/Conv2D f4 [16, 3, 3, 1]
000000 1b 0a c0 bd a6 f5 8a be 08 8e 99 3d d2 9e 58 bd
       -0.093769275 -0.2714054 0.074977934 -0.052885838
000010 fd a6 0a 3d e3 b5 89 3c ed 9b 47 bd 7e 9f da bc
       0.03385066 0.016810363 -0.048732687 -0.02668738
000020 3e 8b 90 bb 09 5c 63 bd 85 07 02 3c df 3b 2d be
       -0.00441113 -0.055507693 0.007936363 -0.1691737
000030 74 98 c6 bd 9c 15 9c be 35 66 1a be 0d ce c8 bd
       -0.09697047 -0.30485237 -0.15078051 -0.09804926
000040 1f 44 b3 bd 08 d9 d3 3d 72 e8 38 3e f6 40 62 bd
       -0.087532274 0.1034413 0.18057421 -0.055237733
000050 bd 6d 6a be 55 92 f7 3d 31 69 92 3d ae 5d 27 3b
       -0.22893424 0.120884575 0.0714897 0.0025538015
000060 20 0a 1e be cf 3a 0b bc 09 ee 77 3d 5f a2 1f 3e
       -0.1543355 -0.008497908 0.060529742 0.15589283
000070 5a 92 f7 3d 61 9e 20 be 88 03 af 3d 73 ad a7 3c
       0.12088461 -0.15685417 0.085455954 0.02046845
000080 91 58 e0 3c 77 c2 c2 bd f8 bc 92 3d d7 31 0a 3d
       0.027385982 -0.095097475 0.07164949 0.033738937
000090 69 fc 25 be 7e 98 0b bd c6 8f 4b bd f7 69 15 3d
       -0.16209568 -0.034080975 -0.04969766 0.03647801
0000a0 fc 7d 38 3e ea f7 2b be aa f1 07 3d 00 b5 bd bd
       0.18016809 -0.1679379 0.033189453 -0.09263039
0000b0 0c 0b 9e bd 86 b5 18 be 26 78 81 3d f2 47 5a 3d
       -0.07716951 -0.14912996 0.063217446 0.05329127
0000c0 c7 6c a5 3d 65 0b 00 3c b4 d1 84 3d fa 5a 0c be
       0.08077388 0.007815217 0.0648531 -0.1370658
0000d0 7d 2d 47 3e 0f 59 d9 bd 1b 77 04 3d 19 7b d0 bb
       0.19450946 -0.1061269 0.03234015 -0.0063623306
0000e0 36 5b ea 3c 75 d6 2a be de ee 88 bd ee ab 2d 3e
       0.028607946 -0.16683371 -0.06686185 0.16960117
0000f0 df f0 50 bd c8 01 80 3c 5d 81 21 3e db e4 f0 3d
       -0.051010963 0.01562585 0.15772004 0.11762401
000100 0e dd 61 bd 40 8f 18 bd 2d d9 2d bd 40 89 03 3d
       -0.055142455 -0.03724599 -0.042443443 0.032113314
000110 c3 5d 44 3e cb c9 d7 3b 62 a2 76 3d d3 30 00 bd
       0.19176392 0.006585335 0.060213454 -0.031296562
000120 e3 c2 1c 3e 37 53 fa bd 97 31 0f be de ea ad 3d
       0.15308718 -0.12222903 -0.13983761 0.08492063
000130 15 30 2e bd 0d 4c 03 3e bb 1f ea 3d d8 38 99 bd
       -0.042526323 0.1282198 0.11431833 -0.07481545
000140 3c 4d 0e 3e 8a c5 e0 3d a4 a1 1a 3e c4 b4 0c 3e
       0.1389665 0.109751776 0.15100724 0.13740832
000150 ea 56 0e be 7a aa 38 bd 62 7b fd 3d cc c6 45 be
       -0.13900343 -0.045084454 0.12377049 -0.19314116
000160 2e fd 0a be 75 ea c5 3c 5a 93 1a 3b 59 1e 3d 3e
       -0.13573143 0.02415965 0.0023586364 0.18468608
000170 65 bc 23 3b e0 aa b8 3d bf 71 94 3d 48 8c 20 3d
       0.0024984118 0.09016967 0.07248258 0.039196283
000180 74 f6 ef 3c 9f 40 13 be 02 80 5b be 87 2b 1b 3e
       0.029292323 -0.1438012 -0.2143555 0.15153323
000190 8a bc fa 3d 8d 19 0e 3e e4 13 0e bd d6 6b ed 3d
       0.12242992 0.13876934 -0.034686938 0.11592834
0001a0 69 c4 8d bd 9d bc 3b 3e 22 66 ac 3b cc fa 87 bd
       -0.06922228 0.18333669 0.0052611986 -0.066396326
0001b0 49 26 2b be ec 3c 47 be d0 5e 89 bd ca f2 74 bd
       -0.16713823 -0.19456834 -0.06707537 -0.059801854
0001c0 ff 2d 43 3d 00 3d c1 bd 7b b2 e3 3d 15 aa 82 bc
       0.047651287 -0.09435463 0.11118027 -0.015950242
0001d0 1a 80 9d bd 83 79 15 bb 68 37 02 be e2 49 fe bd
       -0.07690449 -0.0022808022 -0.12716448 -0.12416436
0001e0 7d a4 30 3e fe a0 91 be 7d fb 00 be 93 6a 7e bd
       0.17250247 -0.2844314 -0.12595935 -0.062113356
0001f0 8e 0c 3e be 52 aa 7a 3d 60 62 30 bc 0c 5f cc bd
       -0.18559477 0.061197586 -0.010765642 -0.09979066
000200 80 57 12 be 75 98 80 bd fb c2 0e 3e a5 24 2d 3e
       -0.14291191 -0.06279079 0.13941567 0.1690851
000210 0f 12 97 3d d4 f5 26 3d 00 4e 84 bd ed fc 23 3d
       0.07376491 0.040761784 -0.0646019 0.04003613
000220 68 26 a6 3d 5c d8 a7 bc dc 19 36 3e 5e 36 da 3d
       0.08112794 -0.02048891 0.17783302 0.10654901
000230 84 cc 9b bc 62 8b 25 be 73 43 ee 3d 5f 04 12 3e
       -0.01901842 -0.16166452 0.11633959 0.1425948
